practice/quantization_practice/quantized_mnist_model_fp16.tflite (tflite, 248400 bytes, 8 tensors)

sequential/conv2d/BiasAdd/ReadVariableOp f2 [32]
000000 99 2a 92 a9 34 27 03 a8 e4 ad 8b 99 5b a0 2b 28
       0.05154 -0.04352 0.02814 -0.03134 -0.09204 -0.002707 -0.00851 0.03256
000010 62 9e dc ae a5 a9 9d a3 f8 9e 57 ab bc ae 75 9d
       -0.006233 -0.1072 -0.0441 -0.01487 -0.006805 -0.05734 -0.1052 -0.00533
000020 2d ac b0 aa 0e 94 3c 9d 6a b0 c3 2d 40 ab 17 a4
       -0.06525 -0.05225 -0.00099 -0.00511 -0.138 0.09 -0.05664 -0.01598
000030 0b ab 52 a7 b5 2b 3b a9 12 9a b0 ac d2 ac 82 ad
       -0.05502 -0.0286 0.0602 -0.04086 -0.002964 -0.07324 -0.0753 -0.08606

sequential/conv2d_1/BiasAdd/ReadVariableOp f2 [64]
000000 49 a8 f6 a0 75 1a f8 a6 b4 ae 41 29 66 ac b9 a9
       -0.03348 -0.00969 0.003153 -0.02722 -0.10474 0.04105 -0.0687 -0.0447
000010 05 a4 22 ac ac ab 31 a0 23 aa ab 1c 95 a5 a5 ab
       -0.0157 -0.0646 -0.05994 -0.00819 -0.04794 0.00456 -0.0218 -0.05972
000020 b6 ab 7f a8 3b 9d 85 a9 dd a9 c4 aa a8 ac c9 ab
       -0.06024 -0.03513 -0.005108 -0.04312 -0.0458 -0.05286 -0.07275 -0.06082
000030 a0 a9 69 a8 e4 a9 5e a8 7b a7 fc a8 6b ac 76 a0
       -0.04395 -0.03445 -0.04602 -0.03412 -0.02922 -0.03894 -0.06903 -0.00871
000040 5c 18 28 9c a4 a9 3d a4 cd a7 9f 1e 9d a6 d8 9f
       0.002129 -0.00406 -0.04407 -0.01656 -0.03047 0.006466 -0.02583 -0.00766
000050 0b a2 6c a6 70 a9 a7 a6 b0 22 37 ab ea ac 51 a9
       -0.0118 -0.02509 -0.04248 -0.02599 0.01306 -0.05637 -0.0768 -0.04153
000060 ac a5 11 ac 91 a8 fc ad 4f a5 f9 a7 42 a1 9b ad
       -0.02216 -0.06354 -0.03568 -0.0935 -0.02074 -0.03114 -0.01027 -0.0876
000070 0e ae 0a 25 c0 a9 73 aa 65 a9 8c aa 0d a0 a4 a2
       -0.0946 0.01968 -0.04492 -0.05038 -0.04214 -0.05115 -0.00791 -0.01297

sequential/conv2d/Conv2D f2 [32, 3, 3, 1]
000000 e8 34 27 27 5c b4 19 32 50 a8 2e b6 26 30 1a b4
       0.3066 0.02794 -0.2725 0.1906 -0.0337 -0.3862 0.1296 -0.2563
000010 01 b6 44 25 d0 30 55 32 ae b2 95 2d 2a 30 bc b4
       -0.3752 0.02057 0.1504 0.1979 -0.2087 0.0872 0.1301 -0.296
000020 0c b2 22 32 6b 24 58 2f 8f 35 90 b5 42 ad 3e 33
       -0.189 0.1917 0.01726 0.11475 0.3474 -0.3477 -0.08215 0.2263
000030 aa b3 c6 b0 6a 29 59 aa b2 2b b8 b0 26 32 37 aa
       -0.2395 -0.1492 0.0423 -0.0496 0.06012 -0.1475 0.1921 -0.04855
000040 75 ae 65 2e 67 33 84 a2 2f a9 70 30 49 a6 77 29
       -0.1009 0.0999 0.2313 -0.012726 -0.0405 0.1387 -0.02455 0.0427
000050 3e 2c f1 2d 56 2a 62 31 65 22 88 33 b4 30 36 2f
       0.0663 0.09283 0.0495 0.1682 0.01249 0.2354 0.147 0.1127
000060 65 33 73 2b e6 b5 c2 26 6a b5 bc af bd 32 b5 ab
       0.2311 0.0582 -0.3687 0.0264 -0.3384 -0.12085 0.2106 -0.0602
000070 7c b4 68 34 01 a4 e4 b4 5f 30 90 2e b2 af 0b 35
       -0.2803 0.2754 -0.01564 -0.3057 0.1366 0.10254 -0.12024 0.3152
000080 39 35 30 32 2a aa 47 a5 7d 27 30 b5 a1 b5 3f b3
       0.3264 0.1934 -0.04816 -0.02061 0.02925 -0.3242 -0.3518 -0.2264
000090 82 af 54 b4 4d b5 f9 31 18 31 b1 15 25 2e d7 32
       -0.1173 -0.2705 -0.3313 0.1866 0.1592 0.0013895 0.096 0.2137
0000a0 bb 30 f8 30 21 2e 02 2d cf ae ad 22 c8 ac cc b2
       0.1478 0.1553 0.09576 0.07825 -0.1064 0.01304 -0.0747 -0.2124
0000b0 aa 2f 9d 31 44 29 77 a0 c0 9c 6d a1 d8 31 63 31
       0.11975 0.1754 0.04114 -0.00872 -0.00464 -0.0106 0.1826 0.1683
0000c0 dc 2d 77 b2 c5 b2 39 b3 2b b4 c6 2c 38 b4 0b ab
       0.09155 -0.202 -0.2115 -0.2257 -0.2605 0.0746 -0.2637 -0.05502
0000d0 08 24 b3 31 92 33 99 34 6a b2 78 b1 05 ae 75 31
       0.01575 0.1781 0.2366 0.2874 -0.2004 -0.1709 -0.09406 0.1705
0000e0 6c ad 6d 2d af 30 49 33 4d 2e 88 b1 56 29 7d 2d
       -0.0847 0.0848 0.1464 0.2277 0.09845 -0.1729 0.0417 0.08575
0000f0 7b 33 28 34 f1 a5 be 31 24 af ae b4 38 9c a0 a9
       0.2338 0.2598 -0.02321 0.1794 -0.1116 -0.2925 -0.00412 -0.04395
000100 45 31 42 a1 b0 31 3b 31 07 31 92 2f ab b3 0a 1f
       0.1647 -0.01027 0.1777 0.1635 0.1571 0.1183 -0.2396 0.006874
000110 6c b4 f8 b5 e7 2a 5d 31 7e aa 44 2b 3b 30 7e 34
       -0.2764 -0.373 0.05392 0.1676 -0.05072 0.05676 0.1322 0.2808
000120 70 2c 69 30 73 29 9c aa 75 2f 87 2f 8c 30 12 32
       0.06934 0.1378 0.04257 -0.05164 0.1165 0.1176 0.1421 0.1897
000130 96 2d ce 2a 29 29 f7 b4 03 b0 4e a4 29 2c 89 a9
       0.0873 0.05316 0.0403 -0.3103 -0.1254 -0.01682 0.065 -0.04324
000140 6d 32 67 32 75 30 9f 2d 0a 30 be 2d ef 2c 4b 30
       0.2008 0.2001 0.1393 0.0878 0.1262 0.0897 0.0771 0.1342
000150 86 b4 16 b4 ed b1 d3 b4 2c b1 e9 34 fc b5 54 2e
       -0.2827 -0.2554 -0.1852 -0.3015 -0.1616 0.307 -0.374 0.0989
000160 0d 34 d9 b3 5e 2d 2a 2d de 30 07 12 99 b2 c1 30
       0.2532 -0.2452 0.08386 0.0807 0.1521 0.0007358 -0.2062 0.1486
000170 0d 32 63 31 86 b0 87 28 75 29 76 b0 c9 b7 b3 b4
       0.1891 0.1683 -0.1414 0.03537 0.04263 -0.1394 -0.4866 -0.2937
000180 82 b5 d7 a4 cc 30 38 b0 99 2f b7 34 31 b5 19 b1
       -0.3442 -0.0189 0.1499 -0.1318 0.1187 0.2947 -0.3245 -0.1593
000190 91 31 2c a6 e4 33 30 29 d6 2f fb 31 23 b3 33 2f
       0.174 -0.02411 0.2466 0.04053 0.12244 0.1869 -0.223 0.1125
0001a0 7d 31 b9 2c a2 b2 86 2f 17 35 e9 b3 d4 b5 1f a6
       0.1715 0.0738 -0.2073 0.11755 0.318 -0.2472 -0.3643 -0.02391
0001b0 6e a9 5d 28 59 26 44 30 26 2d fe 2f 9c 2a 41 2d
       -0.04242 0.0341 0.0248 0.1333 0.08044 0.1249 0.05164 0.0821
0001c0 94 2c 4c ae 84 2e 29 31 d1 2c 96 28 46 af f7 ae
       0.07153 -0.0984 0.1018 0.1613 0.07526 0.03583 -0.11365 -0.1088
0001d0 a1 af 9a 2c f1 b4 c1 b4 5f b1 3f 30 33 ac d0 b2
       -0.1192 0.0719 -0.3088 -0.297 -0.1678 0.1327 -0.0656 -0.2129
0001e0 0d 31 ef 2a 9c 34 d2 b1 c3 81 3c 30 55 30 6c 32
       0.1578 0.05417 0.288 -0.1819 -2.69e-05 0.1323 0.1354 0.2007
0001f0 6e 32 63 20 6e b0 6a b4 59 28 5c 29 af 30 ae 32
       0.2009 0.00857 -0.1384 -0.276 0.03397 0.04187 0.1464 0.2087

sequential/conv2d_1/Conv2D f2 [64, 3, 3, 32]
000000 31 b3 a3 2f 16 20 8a 24 48 a8 b0 af b8 ac 86 ac
       -0.2247 0.1193 0.00798 0.01773 -0.03345 -0.1201 -0.0737 -0.0707
000010 56 b0 ce ae 83 a5 89 af 1a ac 3a b1 c1 27 e1 27
       -0.1355 -0.1063 -0.02153 -0.11774 -0.0641 -0.1633 0.03029 0.03078
000020 d1 a0 24 a6 f2 2c 84 2b ac 28 69 b1 2e b0 2c 33
       -0.00941 -0.02399 0.0773 0.05872 0.0365 -0.1691 -0.1306 0.2241
000030 18 ae 30 29 d7 aa 77 29 68 27 eb 29 e6 27 ad 29
       -0.0952 0.04053 -0.05344 0.0427 0.02893 0.04623 0.03085 0.04434
000040 9e a5 5c 2d 90 a4 a1 29 f1 a7 8c b1 b4 2d 13 b2
       -0.02194 0.08374 -0.01782 0.04398 -0.03102 -0.1733 0.0891 -0.1898
000050 4b 99 51 aa b7 a4 97 b1 7e a3 4f a8 5f 1d b5 a9
       -0.002584 -0.04935 -0.01842 -0.1747 -0.01463 -0.03366 0.005245 -0.0446
000060 12 ad 08 26 e5 a6 b7 2a 98 2c 9a b2 ce 2a 57 2a
       -0.0792 0.02356 -0.02693 0.05246 0.0718 -0.2063 0.05316 0.04953
000070 27 a4 54 29 2a ae 36 ae 1d a9 9c 2e aa a1 bc 2d
       -0.01622 0.04163 -0.0963 -0.09705 -0.03995 0.1033 -0.01106 0.0896
000080 48 29 91 ad eb 95 a6 ae 03 ae 33 ae cd 2e dd b1
       0.04126 -0.087 -0.001445 -0.1039 -0.09393 -0.09686 0.10626 -0.1832
000090 ef ac 1c aa 2e ac e1 af 3d ad eb 20 ba ab 66 ad
       -0.0771 -0.04773 -0.0653 -0.1231 -0.08185 0.009605 -0.06036 -0.08435
0000a0 b4 b0 8c ad 4c ae f1 a7 51 af 7b a2 49 a9 80 1e
       -0.147 -0.0867 -0.0984 -0.03102 -0.1143 -0.01266 -0.0413 0.006348
0000b0 39 b0 db af 4e 2a c7 ae 90 ac 18 ae 5f 27 4c b0
       -0.132 -0.12274 0.04926 -0.1059 -0.0713 -0.0952 0.0288 -0.1343
0000c0 e8 aa fe 27 49 29 4f ad 4c ab 9d 2c 59 a0 cc af
       -0.05396 0.03122 0.0413 -0.08295 -0.057 0.0721 -0.00849 -0.1218
0000d0 64 ad b6 a2 f7 24 74 98 c3 ae 06 b0 8c ac d2 15
       -0.0842 -0.01311 0.0194 -0.002174 -0.10565 -0.1257 -0.07104 0.001421
0000e0 96 af be 9c 3e 94 6c 2c 02 b0 63 a9 bb b0 37 aa
       -0.1185 -0.00463 -0.001036 0.0691 -0.1252 -0.04208 -0.1478 -0.04855
0000f0 8b aa a0 a7 a6 aa 74 ae 92 a7 8e 1b b4 2d bb ad
       -0.05112 -0.02979 -0.05194 -0.1008 -0.02957 0.003689 0.0891 -0.08954
000100 7a 2e 89 2d 77 29 b2 29 72 ab dd 2f 5a a8 ac b1
       0.1012 0.0865 0.0427 0.0445 -0.05817 0.12286 -0.034 -0.1772
000110 89 9e d5 2c 6b 26 03 29 3b 27 d9 a8 9e 2d 85 24
       -0.006382 0.0755 0.02507 0.03915 0.02824 -0.03787 0.08777 0.01765
000120 d2 2d dd a3 af b0 1d 31 71 ac 86 2c 12 aa 6e b1
       0.09094 -0.01536 -0.1464 0.1598 -0.0694 0.0707 -0.04742 -0.1697
000130 3c 29 2d af 87 25 f5 95 ed 9d 1a 27 f5 28 db 2e
       0.0409 -0.1121 0.02159 -0.001454 -0.005787 0.02774 0.03873 0.1071
000140 3c b2 48 2a 89 ae e7 1e 57 2c d4 83 ac b0 e4 a9
       -0.1948 0.04907 -0.1021 0.00674 0.0678 -5.84e-05 -0.146 -0.04602
000150 b4 a6 cd 2c 72 29 25 30 e5 29 3a 14 e0 a3 30 28
       -0.02618 0.075 0.04254 0.1295 0.04605 0.001032 -0.01538 0.0327
000160 a9 29 b4 a3 6f ac f2 24 0b 2e 68 2c 1b a8 00 9e
       0.04422 -0.015045 -0.0693 0.01932 0.0944 0.06885 -0.03207 -0.00586
000170 a3 2d fb a6 31 2a 16 94 e5 ab 4a 30 07 a2 a8 22
       0.0881 -0.02727 0.04837 -0.000998 -0.06168 0.134 -0.01177 0.013
000180 76 a4 98 ab dc 1c 7a 28 bd 23 89 2c 3c aa 92 9d
       -0.01743 -0.05933 0.004745 0.03497 0.015114 0.07086 -0.0487 -0.00544
000190 b8 24 e9 a8 4b 2c d3 2a 18 2f 7f 2e ac 2e e4 2e
       0.01843 -0.03836 0.0671 0.0533 0.11084 0.1015 0.10425 0.10767
0001a0 22 26 df 2e 73 a9 58 2c ca ab 70 30 c0 31 f8 ab
       0.02396 0.10736 -0.04257 0.0679 -0.06085 0.1387 0.1797 -0.06226
0001b0 43 2c e6 a9 55 2d 72 2f 64 a4 a7 a9 4c 26 13 af
       0.0666 -0.04608 0.0833 0.11633 -0.01715 -0.04416 0.0246 -0.11053
0001c0 4e 29 7d a7 13 ac 9e 22 7b 25 eb 2d db a1 b5 28
       0.04144 -0.02925 -0.06366 0.012924 0.02141 0.09247 -0.01144 0.03677
0001d0 84 ab 0e ad 36 95 2c 2e 2d 2c d4 31 77 2c 6f a3
       -0.05872 -0.079 -0.001272 0.09644 0.06525 0.1821 0.06976 -0.01452
0001e0 fa a1 91 ab 69 25 d1 a3 1b ae 91 a4 23 32 b4 ab
       -0.01167 -0.0591 0.02113 -0.01527 -0.0954 -0.01784 0.1918 -0.06018
0001f0 00 a8 7b 30 cb b1 b6 2b 25 30 dc af f5 af b3 ad
       -0.03125 0.14 -0.181 0.06024 0.1295 -0.1228 -0.1243 -0.08905

sequential/dense/BiasAdd/ReadVariableOp f2 [64]
000000 d7 9e 24 ac 26 9e 49 a4 a6 26 30 19 79 a5 a1 90
       -0.00668 -0.0647 -0.006004 -0.01674 0.02597 0.002533 -0.02138 -0.000565
000010 d5 24 02 9d 1d 27 df 29 87 29 c4 2a e6 98 82 1d
       0.01888 -0.00489 0.02779 0.04587 0.04318 0.05286 -0.002392 0.00538
000020 be 9c 8f 28 63 a7 c4 a9 0c a7 53 19 c6 1c cd 25
       -0.00463 0.0356 -0.02885 -0.04504 -0.02753 0.0026 0.00466 0.02266
000030 d4 23 c1 a7 a3 25 8d a5 4b 21 a5 22 85 9f 2a 25
       0.01529 -0.03029 0.02202 -0.02168 0.01034 0.01298 -0.007343 0.02017
000040 fd 22 a9 24 73 22 b7 26 b5 9f c8 a0 2d 2c f2 a6
       0.01365 0.0182 0.012596 0.02623 -0.007526 -0.00934 0.06525 -0.02713
000050 50 a8 d5 28 85 9e 45 a4 99 a1 59 9e 39 9e 69 22
       -0.0337 0.03775 -0.006367 -0.01668 -0.01093 -0.0062 -0.006077 0.01252
000060 1f 25 8d 1e 48 1d 7d 24 70 9f 7c a2 26 9e 7b 27
       0.02 0.006397 0.005157 0.01753 -0.007263 -0.012665 -0.006004 0.02922
000070 a3 9f e8 22 57 a2 ac 03 a9 a0 3b 22 57 a0 d3 a4
       -0.007458 0.01349 -0.01238 5.6e-05 -0.0091 0.01217 -0.00848 -0.01884

sequential/dense_1/BiasAdd/ReadVariableOp f2 [10]
000000 1e 24 5c 2b 4b a9 bc a8 de 28 32 a2 13 a1 5a a4
       0.01608 0.0575 -0.04135 -0.037 0.03802 -0.0121 -0.00991 -0.017
000010 81 23 26 9e
       0.014656 -0.006004

sequential/dense/MatMul f2 [64, 1600]
000000 ad a8 f8 29 59 29 93 9e 9d 24 24 a1 f1 29 3c a9
       -0.03653 0.04663 0.04178 -0.00642 0.01802 -0.01004 0.04642 -0.0409
000010 40 ac 6b aa c7 a4 33 ac e6 a8 f0 a9 5e 29 6f aa
       -0.0664 -0.05014 -0.01866 -0.0656 -0.03827 -0.0464 0.04193 -0.05026
000020 66 0d eb 9a 3c ac ec 25 25 29 a0 ab ec 28 24 a6
       0.0003295 -0.003378 -0.06616 0.02313 0.0402 -0.05957 0.03845 -0.02399
000030 5b 20 d8 a6 2a 24 99 23 c5 25 5d aa a1 ab a6 27
       0.00851 -0.02673 0.01627 0.01484 0.02254 -0.0497 -0.0596 0.02988
000040 98 ab db a0 f9 26 24 1c 3f a3 41 ab 8f a8 9f aa
       -0.05933 -0.00948 0.02724 0.004044 -0.01415 -0.05667 -0.0356 -0.05173
000050 21 a7 12 a9 7c 1e 0d 1c bd 94 c6 29 11 1f 48 9f
       -0.02785 -0.0396 0.006332 0.003956 -0.001157 0.0451 0.0069 -0.00711
000060 e5 a9 91 a4 d8 29 34 24 c2 ab 71 28 7d a2 37 28
       -0.04605 -0.01784 0.04565 0.01642 -0.0606 0.0347 -0.01267 0.03293
000070 a5 a4 17 24 ee 9d f8 a9 a4 ab 56 28 6d 29 35 28
       -0.01814 0.01598 -0.00579 -0.04663 -0.0597 0.03387 0.0424 0.03287
000080 f4 a5 2c 20 86 ab b2 1a ea 26 13 29 e1 9e 72 a7
       -0.02325 0.00815 -0.05878 0.00327 0.02701 0.03964 -0.006718 -0.02908
000090 72 1c ce ab 7d 2a 97 23 bf ab 98 29 7d 24 7c a8
       0.00434 -0.06097 0.0507 0.014824 -0.06052 0.0437 0.01753 -0.03503
0000a0 74 a4 65 1f db 1b ed 2a 6a aa dd a8 33 2a b3 25
       -0.0174 0.00722 0.003836 0.0541 -0.0501 -0.038 0.04843 0.02226
0000b0 ce ab 68 22 a2 a2 66 26 2c ab 6a ab 1a 2a c4 a6
       -0.06097 0.01251 -0.012955 0.025 -0.05603 -0.05792 0.04767 -0.02643
0000c0 f4 28 3a a4 c4 9e 96 a8 be 23 d8 26 4c 1d d2 a8
       0.0387 -0.01651 -0.006607 -0.03583 0.01512 0.02673 0.005173 -0.03766
0000d0 da a2 29 29 b4 a8 78 2a ab aa 45 a5 07 a4 25 a4
       -0.01338 0.0403 -0.03674 0.05054 -0.0521 -0.02058 -0.01573 -0.01619
0000e0 45 a7 b8 a9 f5 29 4d 1e 44 29 23 aa 39 28 8a a4
       -0.0284 -0.04468 0.04654 0.006153 0.04114 -0.04794 0.033 -0.01773
0000f0 04 a8 12 28 45 a1 0b a8 bd ab 17 20 c4 a8 b7 ab
       -0.03137 0.0318 -0.01029 -0.0316 -0.06046 0.00799 -0.03723 -0.06027
000100 6c 1e bf 1e 2b 9d 25 27 bf ab 86 a9 a7 a1 3f ab
       0.00627 0.006588 -0.005047 0.02791 -0.06052 -0.04315 -0.01104 -0.0566
000110 17 a9 1c 27 4f a7 00 ac 26 aa da a8 43 1c 3c aa
       -0.03976 0.02777 -0.02855 -0.0625 -0.04803 -0.0379 0.00416 -0.0487
000120 67 aa a7 9d ec 20 3d 26 9b 1d ac 28 4f a3 b3 ab
       -0.05002 -0.00552 0.00961 0.02437 0.005474 0.0365 -0.014275 -0.06015
000130 a6 24 1d aa eb 28 ab a5 3c ab 7a a3 f9 28 b8 a8
       0.01816 -0.04776 0.03842 -0.02214 -0.05652 -0.0146 0.03885 -0.03687
000140 a0 a2 2f a4 9d 1d 39 23 6e ab 13 1e 6f a8 17 a9
       -0.01294 -0.01634 0.00548 0.01411 -0.05804 0.00593 -0.03464 -0.03976
000150 13 1f 63 ab 8f 1e 35 27 11 2a 80 26 4e 24 57 a8
       0.00691 -0.0577 0.006405 0.02815 0.0474 0.02539 0.01682 -0.0339
000160 c3 27 51 aa 43 ac 0d 2b b5 a5 c7 a8 49 22 c1 a4
       0.03032 -0.04935 -0.0666 0.05508 -0.0223 -0.03732 0.012276 -0.01857
000170 c7 a7 d0 23 00 24 ff 29 4f 1d f8 25 d2 28 c1 ab
       -0.03038 0.01526 0.01563 0.04684 0.005184 0.02332 0.03766 -0.06058
000180 d7 ab 47 1c 80 1c 42 a5 37 9d 4b ac f5 21 53 17
       -0.06125 0.004177 0.004395 -0.02054 -0.005093 -0.0671 0.011635 0.001788
000190 14 a5 fd a9 3b a2 d8 aa 31 aa d3 28 4d a6 8f a8
       -0.01984 -0.04678 -0.01217 -0.05347 -0.04837 0.0377 -0.02461 -0.0356
0001a0 79 a8 e9 25 17 a8 03 2a a5 a4 46 9f 2f ac d0 24
       -0.03494 0.02309 -0.03195 0.04697 -0.01814 -0.007103 -0.06537 0.0188
0001b0 6f a5 25 ac 48 29 56 24 18 a6 bc 2a ff a3 6b a1
       -0.02122 -0.06476 0.04126 0.01694 -0.0238 0.0526 -0.01562 -0.01058
0001c0 22 27 22 92 7f a9 a2 a8 ef 28 5a a8 f5 9b 8a ab
       0.02786 -0.0007486 -0.04294 -0.0362 0.03854 -0.034 -0.003885 -0.0589
0001d0 d7 a6 fd a5 e8 a2 80 aa aa 25 a6 ab 8f 28 7e a9
       -0.02672 -0.02339 -0.01349 -0.05078 0.02213 -0.05975 0.0356 -0.0429
0001e0 30 29 22 29 3f 21 41 a2 fe a6 b6 28 1d a8 73 a5
       0.04053 0.0401 0.01025 -0.012215 -0.02731 0.0368 -0.03214 -0.02129
0001f0 76 a6 e5 8e 26 ac 18 1a d4 26 1c ac c1 26 86 aa
       -0.02524 -0.0004208 -0.0648 0.002975 0.02667 -0.0642 0.02638 -0.05096

sequential/dense_1/MatMul f2 [10, 64]
000000 b0 b3 2b 2d 5d b2 f8 b1 19 b5 dd b1 f7 32 a6 2d
       -0.2402 0.08075 -0.1989 -0.1865 -0.3186 -0.1832 0.2177 0.08826
000010 ad a9 f6 b2 ec 34 77 30 fa 17 04 31 6f 33 5e 35
       -0.04434 -0.2175 0.3076 0.1395 0.001947 0.1567 0.2323 0.3354
000020 78 b1 d8 31 a5 b4 22 33 93 b3 fa b5 03 b4 ff 33
       -0.1709 0.1826 -0.2903 0.2229 -0.2367 -0.3735 -0.2507 0.2499
000030 0d 29 33 b3 12 33 ee b4 a4 30 86 ac 70 ae 5b a7
       0.03946 -0.225 0.221 -0.308 0.145 -0.0707 -0.1006 -0.02873
000040 51 26 f0 b4 3d 2e d2 2e 0a b4 9a 2a aa 34 c7 b0
       0.02467 -0.3086 0.0975 0.10657 -0.2524 0.05157 0.2915 -0.1493
000050 8f 2f 07 2a a2 b2 a7 29 44 ad 79 30 44 b5 35 35
       0.1181 0.0471 -0.2073 0.04416 -0.0823 0.1398 -0.329 0.3254
000060 45 31 82 a5 06 34 4a 24 2a aa 53 af ac b0 81 b5
       0.1647 -0.02151 0.2515 0.01675 -0.04816 -0.11444 -0.146 -0.344
000070 58 b5 6a 2f 3f b3 33 b2 ca b3 7f b1 d8 af 3a 9c
       -0.334 0.11584 -0.2264 -0.1937 -0.2434 -0.1718 -0.12256 -0.004128
000080 14 23 3b 31 7f b4 09 32 21 34 fd b2 9a b0 88 b1
       0.013824 0.1635 -0.281 0.1886 0.258 -0.2184 -0.1438 -0.1729
000090 65 36 46 b5 d7 b4 d8 31 74 34 49 35 3f b0 2e 33
       0.3997 -0.3296 -0.3025 0.1826 0.2783 0.3303 -0.1327 0.2244
0000a0 ca 24 61 33 0b ad 8e 30 9b b1 e1 33 6f ae c7 2d
       0.0187 0.2306 -0.0788 0.1423 -0.1752 0.2462 -0.1005 0.0903
0000b0 28 b0 9c aa c2 35 6b b5 d3 2e a8 34 8f b4 7d af
       -0.1299 -0.05164 0.3599 -0.3386 0.1066 0.291 -0.285 -0.117
0000c0 2d 30 90 33 52 b0 de 2b 69 32 d0 b4 83 32 fd aa
       0.1305 0.2363 -0.135 0.06146 0.2003 -0.3008 0.2035 -0.0546
0000d0 32 2f 52 32 32 b5 61 ae e4 31 19 b4 ad 2c 18 b6
       0.1124 0.1975 -0.3247 -0.0997 0.1841 -0.256 0.07306 -0.3809
0000e0 e5 b4 c0 2e 28 ab 56 af ab b2 60 ab 1f 29 dc 34
       -0.306 0.10547 -0.0559 -0.1146 -0.2084 -0.05762 0.04 0.3037
0000f0 71 b4 45 b4 d3 b1 c9 b2 5d ad b0 ae af 31 64 aa
       -0.2776 -0.2668 -0.182 -0.212 -0.0838 -0.1045 0.1776 -0.04993
000100 51 2b 15 b2 22 b2 16 33 a0 af 95 34 4d af 76 b1
       0.05716 -0.1901 -0.1917 0.2214 -0.11914 0.2864 -0.1141 -0.1707
000110 d7 a8 5f b4 fe 2d 52 b4 55 31 34 34 3a 28 cd a5
       -0.0378 -0.2732 0.0936 -0.27 0.1666 0.2627 0.03302 -0.02266
000120 9d 31 f8 b6 da 32 93 ad 21 b3 7e 34 d3 b4 6a 32
       0.1754 -0.4355 0.2141 -0.0871 -0.2228 0.2808 -0.3015 0.2004
000130 c4 2b 21 aa 39 30 72 2c 24 1e 97 a9 04 31 5a b2
       0.06067 -0.04788 0.132 0.06946 0.005997 -0.04367 0.1567 -0.1985
000140 dd b4 b4 b5 2d 2d 6c b2 63 2f bf 30 03 b5 0e 30
       -0.304 -0.3564 0.0809 -0.2007 0.1154 0.1483 -0.3132 0.1267
000150 09 2b 69 a5 36 26 da b1 7a 30 ea ae be 32 89 b4
       0.05496 -0.02113 0.02426 -0.1829 0.1399 -0.10803 0.2107 -0.2834
000160 28 34 6b ac 49 30 72 b5 8c 31 5a 30 b7 32 d7 33
       0.2598 -0.06903 0.1339 -0.3403 0.1733 0.136 0.2098 0.245
000170 88 b3 10 b1 f0 b3 11 33 84 32 ab a8 48 2f e2 b3
       -0.2354 -0.1582 -0.248 0.2208 0.2036 -0.03647 0.1138 -0.2463
000180 31 34 80 b3 8d ac 46 b4 af b4 69 ac 79 af bc 34
       0.262 -0.2344 -0.0711 -0.267 -0.2927 -0.0689 -0.11676 0.296
000190 ce 2c 15 21 60 b2 80 b4 8e b5 1b b6 4f 2c 3b 2c
       0.0751 0.009926 -0.1992 -0.2812 -0.3472 -0.3816 0.0673 0.0661
0001a0 d7 32 85 b1 fd b0 fe b1 2f 32 b0 34 04 2f 39 b3
       0.2137 -0.1725 -0.1559 -0.1873 0.1932 0.293 0.1096 -0.2257
0001b0 84 a9 a6 b0 94 b4 9f 32 25 b1 94 30 bd 27 2a b5
       -0.0431 -0.1453 -0.2861 0.2069 -0.1608 0.1431 0.03023 -0.3228
0001c0 0a 2a 76 32 59 31 6d ad df 31 95 a8 43 b6 7c 31
       0.04718 0.2019 0.1671 -0.0848 0.1835 -0.0358 -0.3914 0.1714
0001d0 8e 22 99 b3 bb 26 ef 29 f6 b2 ee 27 7e 2e ee 2d
       0.0128 -0.2374 0.02629 0.04636 -0.2175 0.03098 0.10144 0.09265
0001e0 0f b5 0e 35 23 26 62 b0 d2 2c c3 b1 1e 34 b8 34
       -0.3162 0.316 0.02397 -0.137 0.0753 -0.18 0.2573 0.295
0001f0 43 35 69 b4 3f 34 c7 b1 11 33 3f b5 33 2e 6c 31
       0.3289 -0.2756 0.2654 -0.1805 0.2208 -0.328 0.09686 0.1694
