practice/quantization_practice/quantized_mnist_model_dynamic.tflite (tflite, 129488 bytes, 8 tensors)

sequential/dense_1/MatMul f4 [10, 64]
0	0xbe760c5e	-0.24028155
1	0x3da56449	0.080757685
2	0xbe4b9598	-0.19881284
3	0xbe3efb63	-0.18650584
4	0xbea31a47	-0.31855986
5	0xbe3b90b4	-0.18316919
6	0x3e5edb0e	0.2176325
7	0x3db4c539	0.0882668
8	0xbd35a6e1	-0.0443486
9	0xbe5ecc80	-0.21757698
10	0x3e9d80db	0.3076237
11	0x3e0ed2eb	0.13947646
12	0x3aff4472	0.0019475354
13	0x3e207e1d	0.15673108
14	0x3e6dddde	0.23229167
15	0x3eabbace	0.33540958
16	0xbe2ef068	-0.17083895
17	0x3e3b0524	0.1826368
18	0xbe94ab95	-0.29037157
19	0x3e64473a	0.22292796
20	0xbe725351	-0.23664595
21	0xbebf4ee0	-0.37364864
22	0xbe806a82	-0.2508126
23	0x3e7fd80e	0.24984762
24	0x3d219600	0.03944969
25	0xbe665ded	-0.22496767
26	0x3e62430a	0.22095886
27	0xbe9dbbae	-0.3080725
28	0x3e148d5c	0.1450705
29	0xbd90bee8	-0.070676625
30	0xbdcdf596	-0.100566074
31	0xbceb5f03	-0.028731829
32	0x3cca2644	0.02467645
33	0xbe9df12a	-0.30848056
34	0x3dc79a59	0.09746236
35	0x3dda4d95	0.10659329
36	0xbe814e85	-0.25255218
37	0x3d5336e8	0.051566035
38	0x3e95478d	0.2915615
39	0xbe18e7b9	-0.14932145
40	0x3df1dd69	0.11809809
41	0x3d40db3f	0.04708409
42	0xbe543026	-0.20721492
43	0x3d34d684	0.04414989
44	0xbda88453	-0.08228364
45	0x3e0f2e8e	0.13982603
46	0xbea878b7	-0.32904598
47	0x3ea6911c	0.32532585
48	0x3e28a76e	0.1647012
49	0xbcb03d92	-0.021513734
50	0x3e80b28f	0.2513623
51	0x3c893c64	0.01675243
52	0xbd4533ed	-0.048145223
53	0xbdea6559	-0.11445112
54	0xbe157d21	-0.14598514
55	0xbeb02075	-0.34399763
56	0xbeaaf48d	-0.33389702
57	0x3ded3716	0.115827724
58	0xbe67d8cc	-0.22641295
59	0xbe465401	-0.19367982
60	0xbe79320d	-0.24335499
61	0xbe2fe432	-0.17176893
62	0xbdfb0a57	-0.122578315
63	0xbb874d5a	-0.004129094
64	0x3c6288b4	0.013826538
65	0x3e275666	0.16341552
66	0xbe8fde89	-0.28099468
67	0x3e411416	0.18855318
68	0x3e8417fd	0.25799552
69	0xbe5facbe	-0.2184324
70	0xbe133a6b	-0.14377753
71	0xbe30fb30	-0.1728332
72	0x3ecc968b	0.39958605
73	0xbea8b3fe	-0.32949823
74	0xbe9ad5c1	-0.30241206
75	0x3e3af9f3	0.1825941
76	0x3e8e8d1f	0.27842042
77	0x3ea913dc	0.33022964
78	0xbe07e93c	-0.13272566
79	0x3e65bdaf	0.2243564
80	0x3c99305f	0.018699823
81	0x3e6c2148	0.23059571
82	0xbda159e1	-0.07878471
83	0x3e11ba36	0.1423119
84	0xbe3369df	-0.17520855
85	0x3e7c2e03	0.24626927
86	0xbdcde8a7	-0.100541405
87	0x3db8eb82	0.090292946
88	0xbe050f28	-0.12994063
89	0xbd538302	-0.05163861
90	0x3eb8429e	0.35988325
91	0xbead5540	-0.33854103
92	0x3dda5c5d	0.10662148
93	0x3e950ef5	0.29112974
94	0xbe91e2e4	-0.28493416
95	0xbdef9af9	-0.116994806
96	0x3e059b26	0.13047466
97	0x3e71fb39	0.2363099
98	0xbe0a3803	-0.1349793
99	0x3d7bc9b3	0.061471652
100	0x3e4d1c20	0.2003026
101	0xbe9a06a0	-0.3008318
102	0x3e506da1	0.2035432
103	0xbd5f920c	-0.05458264
104	0x3de64da9	0.11245281
105	0x3e4a3749	0.19747652
106	0xbea64881	-0.3247719
107	0xbdcc1ed2	-0.09966816
108	0x3e3c7ee9	0.18407787
109	0xbe83288a	-0.25616866
110	0x3d9599d0	0.07304728
111	0xbec305c9	-0.3809035
112	0xbe9c985c	-0.3058499
113	0x3dd7ff44	0.10546735
114	0xbd65009f	-0.055908795
115	0xbdeac8d9	-0.1146409
116	0xbe556875	-0.20840628
117	0xbd6bfe06	-0.057615303
118	0x3d23ee0d	0.040021945
119	0x3e9b71e1	0.3036032
120	0xbe8e2519	-0.27762678
121	0xbe88a3f9	-0.266876
122	0xbe3a6688	-0.18203175
123	0xbe5919e7	-0.21201287
124	0xbdab95e5	-0.083781995
125	0xbdd5f5e4	-0.104472905
126	0x3e35d2c9	0.1775619
127	0xbd4c81f8	-0.049928635
128	0x3d6a1070	0.057144582
129	0xbe42a3dd	-0.19007821
130	0xbe444c71	-0.19169785
131	0x3e62b08c	0.2213766
132	0xbdf3f990	-0.11912835
133	0x3e929c90	0.28635073
134	0xbde9a9d7	-0.114093475
135	0xbe2ec1bf	-0.17066096
136	0xbd1ad3f9	-0.03779981
137	0xbe8bed25	-0.27329364
138	0x3dbfcd9d	0.093653895
139	0xbe8a31c4	-0.26991093
140	0x3e2aad88	0.1666776
141	0x3e867bd6	0.26266354
142	0x3d0733b3	0.03300829
143	0xbcb9aeb8	-0.02266632
144	0x3e33a6df	0.17544125
145	0xbedf050d	-0.4355854
146	0x3e5b4dfd	0.21416469
147	0xbdb25cea	-0.08709128
148	0xbe642213	-0.22278623
149	0x3e8fbaf6	0.28072327
150	0xbe9a6755	-0.3015696
151	0x3e4d49ab	0.20047633
152	0x3d78846e	0.06067317
153	0xbd442eac	-0.047896072
154	0x3e071b5d	0.13194032
155	0x3d8e36e2	0.06944062
156	0x3bc48087	0.005996767
157	0xbd32dff3	-0.043670606
158	0x3e207eb3	0.15673332
159	0xbe4b321d	-0.19843335
160	0xbe9b9076	-0.30383652
161	0xbeb675eb	-0.3563684
162	0x3da5a494	0.080880314
163	0xbe4d70ab	-0.2006251
164	0x3dec6d8a	0.115443304
165	0x3e17d041	0.14825536
166	0xbea06260	-0.31325054
167	0x3e01c188	0.12671483
168	0x3d611c01	0.054958347
169	0xbcad2cd3	-0.021139538
170	0x3cc6c7bc	0.024265163
171	0xbe3b30c9	-0.18280329
172	0x3e0f4cf9	0.13994206
173	0xbddd4d03	-0.108057044
174	0x3e57b2aa	0.21064249
175	0xbe9119f8	-0.28340125
176	0x3e850807	0.25982687
177	0xbd8d6a9e	-0.06905101
178	0x3e091ce0	0.13389921
179	0xbeae30a1	-0.34021476
180	0x3e3172c0	0.1732893
181	0x3e0b4a75	0.13602622
182	0x3e56ee38	0.2098931
183	0x3e7ad5ef	0.24495672
184	0xbe710628	-0.23537505
185	0xbe21f4c3	-0.15816025
186	0xbe7df2c7	-0.24799643
187	0x3e621978	0.22080028
188	0x3e507790	0.2035811
189	0xbd1557f6	-0.03646084
190	0x3de8fa56	0.11375873
191	0xbe7c363e	-0.24630067
192	0x3e862bef	0.26205394
193	0xbe6ff05e	-0.23431537
194	0xbd919ad5	-0.0710961
195	0xbe88b007	-0.26696798
196	0xbe95df5d	-0.29271975
197	0xbd8d2503	-0.06891825
198	0xbdef20e2	-0.11676194
199	0x3e977d0e	0.29587597
200	0x3d99cc99	0.07509727
201	0x3c22ac2f	0.009928747
202	0xbe4bfc5d	-0.19920488
203	0xbe900a55	-0.28132883
204	0xbeb1cc22	-0.34726053
205	0xbec36547	-0.38163206
206	0x3d89dcc4	0.06731561
207	0x3d8760a2	0.06610228
208	0x3e5aed35	0.2137955
209	0xbe309d63	-0.17247538
210	0xbe1f9d76	-0.1558741
211	0xbe3fcf45	-0.18731411
212	0x3e45d46f	0.19319318
213	0x3e95faa3	0.29292783
214	0x3de07652	0.10960068
215	0xbe672bf6	-0.22575364
216	0xbd307928	-0.043084294
217	0xbe14cec5	-0.14532001
218	0xbe928fbf	-0.28625295
219	0x3e53d8f1	0.20688225
220	0xbe24ad84	-0.16081816
221	0x3e1279b5	0.1430424
222	0x3cf7a8c0	0.030231833
223	0xbea532d3	-0.32265338
224	0x3d414e94	0.04719408
225	0x3e4ec37b	0.20191757
226	0x3e2b29b0	0.16715121
227	0xbdada730	-0.08479154
228	0x3e3be17a	0.18347731
229	0xbd129954	-0.035790756
230	0xbec85815	-0.391297
231	0x3e2f84bd	0.1714048
232	0x3c51cd5c	0.012805309
233	0xbe73226a	-0.23743597
234	0x3cd7592c	0.026287638
235	0x3d3ddffe	0.046356194
236	0xbe5ecee7	-0.21758614
237	0x3cfdc0e4	0.030975766
238	0x3dcfb51c	0.10141966
239	0x3dbdb91b	0.09263822
240	0xbea1dc99	-0.31613615
241	0x3ea1c259	0.31593588
242	0x3cc46948	0.023975983
243	0xbe0c42f1	-0.13697411
244	0x3d9a3200	0.07529068
245	0xbe386b1f	-0.18009613
246	0x3e83bd9d	0.257306
247	0x3e970d81	0.2950249
248	0x3ea86dc9	0.3289626
249	0xbe8d1667	-0.27556154
250	0x3e87da5b	0.2653378
251	0xbe38dc02	-0.18052676
252	0x3e621d17	0.2208141
253	0xbea7d433	-0.32779083
254	0x3dc652dd	0.09683774
255	0x3e2d7b53	0.16941576

sequential/dense_1/BiasAdd/ReadVariableOp f4 [10]
0	0x3c83b483	0.016077286
1	0x3d6b7d68	0.057492644
2	0xbd29667b	-0.0413575
3	0xbd178e61	-0.037001017
4	0x3d1bb5b0	0.038015068
5	0xbc463caf	-0.012099429
6	0xbc22687c	-0.009912606
7	0xbc8b36b0	-0.01699385
8	0x3c701d13	0.014655369
9	0xbbc4b7ca	-0.0060033547

sequential/dense/BiasAdd/ReadVariableOp f4 [64]
0	0xbbdaec48	-0.006680999
1	0xbd847428	-0.064674675
2	0xbbc4be25	-0.0060041123
3	0xbc892bd5	-0.016744534
4	0x3cd4cae0	0.025975645
5	0x3b260029	0.0025329685
6	0xbcaf1533	-0.021372413
7	0xba142e7e	-0.000565268
8	0x3c9aa6d9	0.018878387
9	0xbba0372f	-0.004889391
10	0x3ce39efa	0.027785767
11	0x3d3be9d3	0.04587729
12	0x3d30dfd4	0.04318221
13	0x3d5880da	0.052857257
14	0xbb1ccbfc	-0.0023925295
15	0x3bb046bd	0.0053795264
16	0xbb97bc4d	-0.0046306015
17	0x3d11d2db	0.035601478
18	0xbcec5be3	-0.028852409
19	0xbd387e0d	-0.045042086
20	0xbce17b61	-0.027524652
21	0x3b2a6fac	0.0026006503
22	0x3b98c4f2	0.0046621496
23	0x3cb9913d	0.022652263
24	0x3c7a8933	0.0152915
25	0xbcf81696	-0.030284207
26	0x3cb456c4	0.02201403
27	0xbcb1a439	-0.021684753
28	0x3c2959a4	0.010336313
29	0x3c54add1	0.012980894
30	0xbbf0abdb	-0.0073447055
31	0x3ca549bf	0.020176766
32	0x3c5fae18	0.013652347
33	0x3c9526a8	0.01820691
34	0x3c4e52f5	0.012593021
35	0x3cd6de8a	0.026229162
36	0xbbf6a767	-0.00752728
37	0xbc190614	-0.009339828
38	0x3d85986a	0.06523211
39	0xbcde44fd	-0.027132506
40	0xbd09f6dd	-0.033682693
41	0x3d1a9093	0.037735533
42	0xbbd0a99c	-0.0063678753
43	0xbc88ae66	-0.016684722
44	0xbc3325cb	-0.0109343035
45	0xbbcb284e	-0.006199873
46	0xbbc72122	-0.006076948
47	0x3c4d1a95	0.012518545
48	0x3ca3d127	0.019997193
49	0x3bd199ac	0.006396493
50	0x3ba9019b	0.005157662
51	0x3c8fa421	0.017534317
52	0xbbee0758	-0.007264059
53	0xbc4f86a8	-0.012666382
54	0xbbc4c00a	-0.006004338
55	0x3cef6ba8	0.02922614
56	0xbbf463fd	-0.0074582086
57	0x3c5cf5e4	0.013486359
58	0xbc4ad1f1	-0.0123791555
59	0x386af0d4	5.6014236e-05
60	0xbc1527c4	-0.009103719
61	0x3c476b2a	0.012171546
62	0xbc0adf31	-0.008476065
63	0xbc9a6f89	-0.018852012

sequential/conv2d/BiasAdd/ReadVariableOp f4 [32]
0	0x3d532c40	0.051555872
1	0xbd324926	-0.04352679
2	0x3ce68dce	0.02814379
3	0xbd006fd5	-0.03135665
4	0xbdbc7e15	-0.09203736
5	0xbb315ff0	-0.002706524
6	0xbc0b66d6	-0.008508405
7	0x3d056403	0.03256608
8	0xbbcc33a6	-0.006231743
9	0xbddb8fbd	-0.10720775
10	0xbd349a74	-0.04409261
11	0xbc73951b	-0.0148670925
12	0xbbdf025c	-0.006805701
13	0xbd6ae591	-0.057347838
14	0xbdd783dc	-0.10523197
15	0xbbae93ec	-0.0053276923
16	0xbd85906d	-0.06521688
17	0xbd560bb0	-0.05225724
18	0xba81ba91	-0.000989752
19	0xbba78ec8	-0.0051134564
20	0xbe0d3021	-0.13787891
21	0x3db863c4	0.09003404
22	0xbd6804b5	-0.056645114
23	0xbc82e419	-0.015977906
24	0xbd615136	-0.05500909
25	0xbcea3f3a	-0.028594602
26	0x3d76ab4a	0.060221948
27	0xbd275734	-0.040854648
28	0xbb423be1	-0.0029637741
29	0xbd95f4ab	-0.07322057
30	0xbd9a458b	-0.075327955
31	0xbdb037b7	-0.08604377

sequential/conv2d_1/BiasAdd/ReadVariableOp f4 [64]
0	0xbd091f20	-0.03347695
1	0xbc1eb52d	-0.00968675
2	0x3b4e9822	0.0031523784
3	0xbcdefaf2	-0.02721927
4	0xbdd67fe4	-0.10473612
5	0x3d282a3a	0.041055895
6	0xbd8cb4a7	-0.06870394
7	0xbd372e9f	-0.044722196
8	0xbc80af12	-0.01570848
9	0xbd843e72	-0.06457223
10	0xbd757a95	-0.059931356
11	0xbc0629eb	-0.008188705
12	0xbd44686e	-0.047951154
13	0x3b9558b7	0.004557695
14	0xbcb294b7	-0.021799428
15	0xbd749a45	-0.059717435
16	0xbd76b975	-0.06023546
17	0xbd0fef27	-0.035140183
18	0xbba75c20	-0.0051074177
19	0xbd30a188	-0.0431228
20	0xbd3b9360	-0.045794845
21	0xbd587a87	-0.052851226
22	0xbd94fb71	-0.07274521
23	0xbd792330	-0.060824573
24	0xbd340877	-0.043953385
25	0xbd0d27f7	-0.03446194
26	0xbd3c7f18	-0.046019644
27	0xbd0bc91b	-0.034127336
28	0xbcef538a	-0.02921464
29	0xbd1f7647	-0.038931157
30	0xbd8d54d0	-0.06900942
31	0xbc0ec1a4	-0.00871316
32	0x3b0b8dfc	0.0021294346
33	0xbb850322	-0.0040592114
34	0xbd347c23	-0.0440637
35	0xbc879de0	-0.016554773
36	0xbcf9982f	-0.030468075
37	0x3bd3edbd	0.0064675496
38	0xbcd3a843	-0.02583707
39	0xbbfafa67	-0.007659245
40	0xbc415c74	-0.011801828
41	0xbccd7e59	-0.025084661
42	0xbd2df1fd	-0.042467106
43	0xbcd4d583	-0.025980717
44	0x3c55f561	0.013058991
45	0xbd66ef7c	-0.056380734
46	0xbd9d3f4c	-0.076780885
47	0xbd2a29bf	-0.04154372
48	0xbcb575c2	-0.022150878
49	0xbd821e19	-0.06353397
50	0xbd122120	-0.03567612
51	0xbdbf8aa7	-0.09352618
52	0xbca9dc1b	-0.020734837
53	0xbcff1923	-0.031139916
54	0xbc28467b	-0.01027071
55	0xbdb3584b	-0.08757075
56	0xbdc1ca74	-0.09462443
57	0x3ca14f72	0.019691203
58	0xbd380e84	-0.04493572
59	0xbd4e58b0	-0.050377548
60	0xbd2cae18	-0.042158216
61	0xbd517f62	-0.051146872
62	0xbc01a26f	-0.007912262
63	0xbc548b67	-0.012972689

sequential/conv2d/Conv2D f4 [32, 3, 3, 1]
0	0x3e9d03c7	0.30666944
1	0x3ce4eb3f	0.027944205
2	0xbe8b7f40	-0.27245522
3	0x3e431f17	0.19054829
4	0xbd0a0810	-0.033699095
5	0xbec5c36a	-0.38625652
6	0x3e04c625	0.12966211
7	0xbe833cf9	-0.25632456
8	0xbec02324	-0.3752681
9	0x3ca8713f	0.020561812
10	0x3e1a0e39	0.15044488
11	0x3e4aa333	0.19788818
12	0xbe55c81d	-0.20877118
13	0x3db2982b	0.0872043
14	0x3e0536eb	0.13009231
15	0xbe977a85	-0.29585662
16	0xbe417ca4	-0.18895203
17	0x3e443b48	0.19163239
18	0x3c8d6576	0.017260294
19	0x3deb061a	0.11475773
20	0x3eb1e7a4	0.3474704
21	0xbeb2007e	-0.34766
22	0xbda83edb	-0.08215114
23	0x3e67cbf0	0.2263639
24	0xbe7548cf	-0.23953556
25	0xbe18c071	-0.1491716
26	0x3d2d4c79	0.042309258
27	0xbd4b1442	-0.049579866
28	0x3d763020	0.06010449
29	0xbe170fa4	-0.1475206
30	0x3e44c2ee	0.19214985
31	0xbd46daf6	-0.04854866
32	0xbdceaac4	-0.10091165
33	0x3dcca7ec	0.09992966
34	0x3e6cd0d9	0.23126544
35	0xbc507482	-0.01272309
36	0xbd25e736	-0.040503703
37	0x3e0dfb42	0.13865378
38	0xbcc92aaa	-0.024556477
39	0x3d2edf5a	0.042693473
40	0x3d87b7a2	0.06626822
41	0x3dbe2ae0	0.092855215
42	0x3d4abcde	0.049496524
43	0x3e2c4b17	0.1682552
44	0x3c4ca6fc	0.012490984
45	0x3e70f8dc	0.23532432
46	0x3e168e23	0.14702658
47	0x3de6bca9	0.11266453
48	0x3e6c96f9	0.23104466
49	0x3d6e56ea	0.058188356
50	0xbebcb5d9	-0.3685749
51	0x3cd8368a	0.026393194
52	0xbead479c	-0.33843696
53	0xbdf785dd	-0.12086079
54	0x3e57af61	0.21062995
55	0xbd76a7be	-0.060218565
56	0xbe8f80d2	-0.2802797
57	0x3e8cf309	0.2752917
58	0xbc802a21	-0.015645089
59	0xbe9c83f8	-0.30569434
60	0x3e0be731	0.13662411
61	0x3dd20710	0.10255253
62	0xbdf64c95	-0.120263256
63	0x3ea15dc7	0.3151686
64	0x3ea72fdf	0.3265371
65	0x3e460b10	0.19340158
66	0xbd4541ec	-0.04815857
67	0xbca8e609	-0.020617502
68	0x3cefa5ca	0.02925386
69	0xbea5f1d8	-0.32411075
70	0xbeb42e88	-0.3519175
71	0xbe67d1fe	-0.226387
72	0xbdf040db	-0.1173112
73	0xbe8a72a0	-0.27040577
74	0xbea99de6	-0.3312828
75	0x3e3f1f11	0.18664195
76	0x3e2303c3	0.15919404
77	0x3ab62cb6	0.0013898823
78	0x3dc49b0d	0.09599886
79	0x3e5ad6a8	0.21370947
80	0x3e176ec0	0.14788342
81	0x3e1efad3	0.1552537
82	0x3dc429d7	0.09578293
83	0x3da033d0	0.078223825
84	0xbdd9d5c0	-0.10636473
85	0x3c55abe5	0.013041471
86	0xbd98ff73	-0.07470598
87	0xbe598ed9	-0.21245898
88	0x3df53fd1	0.11975063
89	0x3e33966e	0.17537853
90	0x3d28817b	0.041139107
91	0xbc0eedba	-0.008723671
92	0xbb980820	-0.0046396405
93	0xbc2da6ac	-0.01059882
94	0x3e3af5a9	0.18257774
95	0x3e2c60c4	0.16833788
96	0x3dbb89d4	0.09157148
97	0xbe4ed478	-0.20198238
98	0xbe589e23	-0.21154074
99	0xbe67198d	-0.2256834
100	0xbe85644a	-0.26053077
101	0x3d98ba74	0.07457438
102	0xbe86f437	-0.26358196
103	0xbd6160e8	-0.055024058
104	0x3c81096c	0.015751563
105	0x3e366222	0.17810872
106	0x3e723b47	0.23655425
107	0x3e932ddd	0.28745928
108	0xbe4d4f75	-0.20049842
109	0xbe2f0268	-0.17090762
110	0xbdc0a0cc	-0.094056696
111	0x3e2ea6a1	0.17055751
112	0xbdad7b17	-0.08470743
113	0x3dada426	0.084785745
114	0x3e15d4fd	0.1463203
115	0x3e6911ea	0.2276074
116	0x3dc9ab89	0.09847171
117	0xbe310bbf	-0.17289637
118	0x3d2ab766	0.04167881
119	0x3daf9040	0.085724354
120	0x3e6f50c0	0.23370647
121	0x3e84fd02	0.2597428
122	0xbcbe19ba	-0.023205627
123	0x3e37b208	0.17939007
124	0xbde4849e	-0.11158107
125	0xbe95c861	-0.2925444
126	0xbb86ff7b	-0.004119811
127	0xbd340cfa	-0.043957688
128	0x3e289d13	0.16466169
129	0xbc284682	-0.010270717
130	0x3e35f7e9	0.17770351
131	0x3e2766a0	0.16347742
132	0x3e20dda4	0.15709549
133	0x3df2348a	0.11826427
134	0xbe755f3c	-0.2396211
135	0x3be14146	0.0068742363
136	0xbe8d8a03	-0.27644357
137	0xbebef926	-0.3729946
138	0x3d5cec18	0.053936094
139	0x3e2b9b34	0.16758424
140	0xbd4fbfe2	-0.050720103
141	0x3d687e65	0.056761164
142	0x3e076ae9	0.13224377
143	0x3e8fcdd3	0.2808672
144	0x3d8df348	0.06931168
145	0x3e0d12be	0.13776681
146	0x3d2e6b47	0.042582776
147	0xbd53735a	-0.05162368
148	0x3deea89d	0.11653254
149	0x3df0d496	0.117592975
150	0x3e1175cf	0.14205097
151	0x3e424c41	0.18974401
152	0x3db2b48a	0.08725841
153	0x3d59ccb2	0.05317373
154	0x3d2517c9	0.040305886
155	0xbe9ee39a	-0.3103302
156	0xbe0057cd	-0.12533493
157	0xbc89caef	-0.0168204
158	0x3d85143e	0.064980015
159	0xbd31243c	-0.043247446
160	0x3e4d9106	0.20074853
161	0x3e4ce180	0.20007896
162	0x3e0e9f14	0.13927871
163	0x3db3e008	0.08782965
164	0x3e0142d3	0.12623148
165	0x3db7c08d	0.08972273
166	0x3d9de4a4	0.07709625
167	0x3e09553c	0.1341142
168	0xbe90cda1	-0.28281882
169	0xbe82ce7e	-0.25548166
170	0xbe3d9542	-0.18513969
171	0xbe9a6c53	-0.3016077
172	0xbe2584f7	-0.16164003
173	0x3e9d185c	0.30682647
174	0xbebf8bc5	-0.37411323
175	0x3dca7a14	0.09886566
176	0x3e81aaf6	0.25325745
177	0xbe7b197c	-0.2452144
178	0x3dabbd81	0.083857544
179	0x3da54964	0.08070639
180	0x3e1bccd7	0.15214859
181	0x3a40eb96	0.0007359324
182	0xbe53132d	-0.20612784
183	0x3e182386	0.14857301
184	0x3e41a206	0.18909463
185	0x3e2c6476	0.16835198
186	0xbe10b7fd	-0.14132686
187	0x3d10e5e9	0.03537551
188	0x3d2e9df3	0.0426311
189	0xbe0eb59e	-0.13936469
190	0xbef9154e	-0.48649067
191	0xbe965fcc	-0.29369962
192	0xbeb049f1	-0.34431413
193	0xbc9ad6fd	-0.018901343
194	0x3e197c6f	0.14988874
195	0xbe070ed3	-0.13189249
196	0x3df318d6	0.118699715
197	0x3e96e1aa	0.29469043
198	0xbea62860	-0.3245268
199	0xbe231421	-0.15925647
200	0x3e321c35	0.17393573
201	0xbcc5866a	-0.024111945
202	0x3e7c80aa	0.24658456
203	0x3d260972	0.04053635
204	0x3dfab3d0	0.12241328
205	0x3e3f6043	0.18689065
206	0xbe646928	-0.22305739
207	0x3de6629c	0.11249277
208	0x3e2f9265	0.17145689
209	0x3d971191	0.073763974
210	0xbe544a82	-0.20731547
211	0x3df0bf97	0.11755293
212	0x3ea2e7b9	0.31817415
213	0xbe7d11fe	-0.24713895
214	0xbeba751d	-0.36417475
215	0xbcc3d1af	-0.023903696
216	0xbd2db1ce	-0.042405896
217	0x3d0bab0b	0.034098666
218	0x3ccb15c6	0.024790656
219	0x3e08813b	0.13330548
220	0x3da4bbeb	0.08043655
221	0x3dffc52a	0.12488778
222	0x3d537bac	0.051631615
223	0x3da82513	0.08210196
224	0x3d928844	0.07154897
225	0xbdc97f4b	-0.09838732
226	0x3dd07190	0.1017791
227	0x3e251d22	0.16124395
228	0x3d9a1010	0.07522595
229	0x3d12cc94	0.035839632
230	0xbde8c440	-0.11365557
231	0xbddeebed	-0.10884843
232	0xbdf415e9	-0.119182415
233	0x3d934fbe	0.07192944
234	0xbe9e1caa	-0.30881244
235	0xbe981fe8	-0.29711843
236	0xbe2bdff8	-0.16784656
237	0x3e07ee3b	0.13274471
238	0xbd8664ca	-0.06562193
239	0xbe59f38d	-0.21284313
240	0x3e219d9b	0.15782778
241	0x3d5de62f	0.0541746
242	0x3e937998	0.28803706
243	0xbe3a3a20	-0.18186235
244	0xb7e18550	-2.6884169e-05
245	0x3e0776f2	0.13228968
246	0x3e0aa704	0.13540274
247	0x3e4d7589	0.20064367
248	0x3e4dcc08	0.20097363
249	0x3c0c609a	0.0085679535
250	0xbe0dc29c	-0.13843769
251	0xbe8d4b61	-0.27596572
252	0x3d0b1bea	0.033962168
253	0x3d2b7ee7	0.04186907
254	0x3e15e502	0.14638141
255	0x3e55b65c	0.20870346

sequential/conv2d_1/Conv2D i1 [64, 3, 3, 32]
0	0x81	-127
1	0x43	67
2	0x05	5
3	0x0a	10
4	0xed	-19
5	0xbc	-68
6	0xd6	-42
7	0xd8	-40
8	0xb3	-77
9	0xc4	-60
10	0xf4	-12
11	0xbd	-67
12	0xdc	-36
13	0xa4	-92
14	0x11	17
15	0x11	17
16	0xfb	-5
17	0xf2	-14
18	0x2c	44
19	0x21	33
20	0x15	21
21	0xa0	-96
22	0xb6	-74
23	0x7f	127
24	0xca	-54
25	0x17	23
26	0xe2	-30
27	0x18	24
28	0x10	16
29	0x1a	26
30	0x11	17
31	0x19	25
32	0xf4	-12
33	0x2f	47
34	0xf6	-10
35	0x19	25
36	0xee	-18
37	0x9e	-98
38	0x32	50
39	0x95	-107
40	0xff	-1
41	0xe4	-28
42	0xf6	-10
43	0x9d	-99
44	0xf8	-8
45	0xed	-19
46	0x03	3
47	0xe7	-25
48	0xd3	-45
49	0x0d	13
50	0xf1	-15
51	0x1e	30
52	0x29	41
53	0x8b	-117
54	0x1e	30
55	0x1c	28
56	0xf7	-9
57	0x18	24
58	0xca	-54
59	0xc9	-55
60	0xe9	-23
61	0x3a	58
62	0xfa	-6
63	0x33	51
64	0x17	23
65	0xcf	-49
66	0xff	-1
67	0xc5	-59
68	0xcb	-53
69	0xc9	-55
70	0x3c	60
71	0x98	-104
72	0xd4	-44
73	0xe5	-27
74	0xdb	-37
75	0xba	-70
76	0xd2	-46
77	0x05	5
78	0xde	-34
79	0xd0	-48
80	0xad	-83
81	0xcf	-49
82	0xc8	-56
83	0xee	-18
84	0xbf	-65
85	0xf9	-7
86	0xe9	-23
87	0x04	4
88	0xb5	-75
89	0xbb	-69
90	0x1c	28
91	0xc4	-60
92	0xd8	-40
93	0xca	-54
94	0x10	16
95	0xb4	-76
96	0xe1	-31
97	0x12	18
98	0x17	23
99	0xd1	-47
100	0xe0	-32
101	0x29	41
102	0xfb	-5
103	0xbb	-69
104	0xd0	-48
105	0xf9	-7
106	0x0b	11
107	0xff	-1
108	0xc4	-60
109	0xb9	-71
110	0xd8	-40
111	0x01	1
112	0xbd	-67
113	0xfd	-3
114	0xff	-1
115	0x27	39
116	0xb9	-71
117	0xe8	-24
118	0xac	-84
119	0xe5	-27
120	0xe3	-29
121	0xef	-17
122	0xe3	-29
123	0xc7	-57
124	0xef	-17
125	0x02	2
126	0x32	50
127	0xcd	-51
128	0x39	57
129	0x31	49
130	0x18	24
131	0x19	25
132	0xdf	-33
133	0x45	69
134	0xed	-19
135	0x9c	-100
136	0xfc	-4
137	0x2b	43
138	0x0e	14
139	0x16	22
140	0x10	16
141	0xeb	-21
142	0x32	50
143	0x0a	10
144	0x33	51
145	0xf7	-9
146	0xad	-83
147	0x5a	90
148	0xd9	-39
149	0x28	40
150	0xe5	-27
151	0xa0	-96
152	0x17	23
153	0xc1	-63
154	0x0c	12
155	0xff	-1
156	0xfd	-3
157	0x10	16
158	0x16	22
159	0x3d	61
160	0x92	-110
161	0x1c	28
162	0xc6	-58
163	0x04	4
164	0x26	38
165	0x00	0
166	0xad	-83
167	0xe6	-26
168	0xf1	-15
169	0x2a	42
170	0x18	24
171	0x49	73
172	0x1a	26
173	0x01	1
174	0xf7	-9
175	0x12	18
176	0x19	25
177	0xf7	-9
178	0xd9	-39
179	0x0b	11
180	0x35	53
181	0x27	39
182	0xee	-18
183	0xfd	-3
184	0x32	50
185	0xf1	-15
186	0x1b	27
187	0xff	-1
188	0xdd	-35
189	0x4c	76
190	0xf9	-7
191	0x07	7
192	0xf6	-10
193	0xde	-34
194	0x03	3
195	0x14	20
196	0x09	9
197	0x28	40
198	0xe4	-28
199	0xfd	-3
200	0x0a	10
201	0xea	-22
202	0x26	38
203	0x1e	30
204	0x3f	63
205	0x39	57
206	0x3b	59
207	0x3d	61
208	0x0e	14
209	0x3d	61
210	0xe8	-24
211	0x26	38
212	0xde	-34
213	0x4e	78
214	0x66	102
215	0xdd	-35
216	0x26	38
217	0xe6	-26
218	0x2f	47
219	0x42	66
220	0xf6	-10
221	0xe7	-25
222	0x0e	14
223	0xc2	-62
224	0x17	23
225	0xef	-17
226	0xdc	-36
227	0x07	7
228	0x0c	12
229	0x34	52
230	0xfa	-6
231	0x15	21
232	0xdf	-33
233	0xd3	-45
234	0xff	-1
235	0x37	55
236	0x25	37
237	0x67	103
238	0x27	39
239	0xf8	-8
240	0xf9	-7
241	0xdf	-33
242	0x0c	12
243	0xf7	-9
244	0xca	-54
245	0xf6	-10
246	0x6c	108
247	0xde	-34
248	0xee	-18
249	0x4f	79
250	0x9a	-102
251	0x22	34
252	0x49	73
253	0xbb	-69
254	0xba	-70
255	0xce	-50

sequential/dense/MatMul i1 [64, 1600] scale=0.002851942 zero_point=0
0	0xf3	-0.037075248
1	0x10	0.045631073
2	0x0f	0.042779133
3	0xfe	-0.005703884
4	0x06	0.017111652
5	0xfc	-0.011407768
6	0x10	0.045631073
7	0xf2	-0.03992719
8	0xe9	-0.065594666
9	0xee	-0.05133496
10	0xf9	-0.019963594
11	0xe9	-0.065594666
12	0xf3	-0.037075248
13	0xf0	-0.045631073
14	0x0f	0.042779133
15	0xee	-0.05133496
16	0x00	0.0
17	0xff	-0.002851942
18	0xe9	-0.065594666
19	0x08	0.022815537
20	0x0e	0.03992719
21	0xeb	-0.059890784
22	0x0d	0.037075248
23	0xf8	-0.022815537
24	0x03	0.008555826
25	0xf7	-0.02566748
26	0x06	0.017111652
27	0x05	0.014259711
28	0x08	0.022815537
29	0xef	-0.048483014
30	0xeb	-0.059890784
31	0x0a	0.028519422
32	0xeb	-0.059890784
33	0xfd	-0.008555826
34	0x0a	0.028519422
35	0x01	0.002851942
36	0xfb	-0.014259711
37	0xec	-0.057038844
38	0xf4	-0.034223303
39	0xee	-0.05133496
40	0xf6	-0.028519422
41	0xf2	-0.03992719
42	0x02	0.005703884
43	0x01	0.002851942
44	0x00	0.0
45	0x10	0.045631073
46	0x02	0.005703884
47	0xfe	-0.005703884
48	0xf0	-0.045631073
49	0xfa	-0.017111652
50	0x10	0.045631073
51	0x06	0.017111652
52	0xeb	-0.059890784
53	0x0c	0.034223303
54	0xfc	-0.011407768
55	0x0c	0.034223303
56	0xfa	-0.017111652
57	0x06	0.017111652
58	0xfe	-0.005703884
59	0xf0	-0.045631073
60	0xeb	-0.059890784
61	0x0c	0.034223303
62	0x0f	0.042779133
63	0x0c	0.034223303
64	0xf8	-0.022815537
65	0x03	0.008555826
66	0xeb	-0.059890784
67	0x01	0.002851942
68	0x09	0.02566748
69	0x0e	0.03992719
70	0xfe	-0.005703884
71	0xf6	-0.028519422
72	0x02	0.005703884
73	0xeb	-0.059890784
74	0x12	0.05133496
75	0x05	0.014259711
76	0xeb	-0.059890784
77	0x0f	0.042779133
78	0x06	0.017111652
79	0xf4	-0.034223303
80	0xfa	-0.017111652
81	0x03	0.008555826
82	0x01	0.002851942
83	0x13	0.0541869
84	0xee	-0.05133496
85	0xf3	-0.037075248
86	0x11	0.048483014
87	0x08	0.022815537
88	0xeb	-0.059890784
89	0x04	0.011407768
90	0xfb	-0.014259711
91	0x09	0.02566748
92	0xec	-0.057038844
93	0xec	-0.057038844
94	0x11	0.048483014
95	0xf7	-0.02566748
96	0x0e	0.03992719
97	0xfa	-0.017111652
98	0xfe	-0.005703884
99	0xf3	-0.037075248
100	0x05	0.014259711
101	0x09	0.02566748
102	0x02	0.005703884
103	0xf3	-0.037075248
104	0xfb	-0.014259711
105	0x0e	0.03992719
106	0xf3	-0.037075248
107	0x12	0.05133496
108	0xee	-0.05133496
109	0xf9	-0.019963594
110	0xfa	-0.017111652
111	0xfa	-0.017111652
112	0xf6	-0.028519422
113	0xf0	-0.045631073
114	0x10	0.045631073
115	0x02	0.005703884
116	0x0e	0.03992719
117	0xef	-0.048483014
118	0x0c	0.034223303
119	0xfa	-0.017111652
120	0xf5	-0.031371363
121	0x0b	0.031371363
122	0xfc	-0.011407768
123	0xf5	-0.031371363
124	0xeb	-0.059890784
125	0x03	0.008555826
126	0xf3	-0.037075248
127	0xeb	-0.059890784
128	0x02	0.005703884
129	0x02	0.005703884
130	0xfe	-0.005703884
131	0x0a	0.028519422
132	0xeb	-0.059890784
133	0xf1	-0.042779133
134	0xfc	-0.011407768
135	0xec	-0.057038844
136	0xf2	-0.03992719
137	0x0a	0.028519422
138	0xf6	-0.028519422
139	0xea	-0.062742725
140	0xef	-0.048483014
141	0xf3	-0.037075248
142	0x01	0.002851942
143	0xef	-0.048483014
144	0xee	-0.05133496
145	0xfe	-0.005703884
146	0x03	0.008555826
147	0x09	0.02566748
148	0x02	0.005703884
149	0x0d	0.037075248
150	0xfb	-0.014259711
151	0xeb	-0.059890784
152	0x06	0.017111652
153	0xef	-0.048483014
154	0x0d	0.037075248
155	0xf8	-0.022815537
156	0xec	-0.057038844
157	0xfb	-0.014259711
158	0x0e	0.03992719
159	0xf3	-0.037075248
160	0xfb	-0.014259711
161	0xfa	-0.017111652
162	0x02	0.005703884
163	0x05	0.014259711
164	0xec	-0.057038844
165	0x02	0.005703884
166	0xf4	-0.034223303
167	0xf2	-0.03992719
168	0x02	0.005703884
169	0xec	-0.057038844
170	0x02	0.005703884
171	0x0a	0.028519422
172	0x11	0.048483014
173	0x09	0.02566748
174	0x06	0.017111652
175	0xf4	-0.034223303
176	0x0b	0.031371363
177	0xef	-0.048483014
178	0xe9	-0.065594666
179	0x13	0.0541869
180	0xf8	-0.022815537
181	0xf3	-0.037075248
182	0x04	0.011407768
183	0xf9	-0.019963594
184	0xf5	-0.031371363
185	0x05	0.014259711
186	0x05	0.014259711
187	0x10	0.045631073
188	0x02	0.005703884
189	0x08	0.022815537
190	0x0d	0.037075248
191	0xeb	-0.059890784
192	0xeb	-0.059890784
193	0x01	0.002851942
194	0x02	0.005703884
195	0xf9	-0.019963594
196	0xfe	-0.005703884
197	0xe8	-0.06844661
198	0x04	0.011407768
199	0x01	0.002851942
200	0xf9	-0.019963594
201	0xf0	-0.045631073
202	0xfc	-0.011407768
203	0xed	-0.0541869
204	0xef	-0.048483014
205	0x0d	0.037075248
206	0xf7	-0.02566748
207	0xf4	-0.034223303
208	0xf4	-0.034223303
209	0x08	0.022815537
210	0xf5	-0.031371363
211	0x10	0.045631073
212	0xfa	-0.017111652
213	0xfe	-0.005703884
214	0xe9	-0.065594666
215	0x07	0.019963594
216	0xf9	-0.019963594
217	0xe9	-0.065594666
218	0x0e	0.03992719
219	0x06	0.017111652
220	0xf8	-0.022815537
221	0x12	0.05133496
222	0xfb	-0.014259711
223	0xfc	-0.011407768
224	0x0a	0.028519422
225	0x00	0.0
226	0xf1	-0.042779133
227	0xf3	-0.037075248
228	0x0e	0.03992719
229	0xf4	-0.034223303
230	0xff	-0.002851942
231	0xeb	-0.059890784
232	0xf7	-0.02566748
233	0xf8	-0.022815537
234	0xfb	-0.014259711
235	0xee	-0.05133496
236	0x08	0.022815537
237	0xeb	-0.059890784
238	0x0c	0.034223303
239	0xf1	-0.042779133
240	0x0e	0.03992719
241	0x0e	0.03992719
242	0x04	0.011407768
243	0xfc	-0.011407768
244	0xf6	-0.028519422
245	0x0d	0.037075248
246	0xf5	-0.031371363
247	0xf9	-0.019963594
248	0xf7	-0.02566748
249	0x00	0.0
250	0xe9	-0.065594666
251	0x01	0.002851942
252	0x09	0.02566748
253	0xe9	-0.065594666
254	0x09	0.02566748
255	0xee	-0.05133496
