practice/quantized_mnist_model.tflite (tflite, 129048 bytes, 4 tensors)

sequential/dense_1/MatMul i1 [10, 64] scale=0.004103175 zero_point=0
000000 4a fa e7 46 f6 f2 d4 3f 23 37 47 c9 4a 11 d7 ae
       0.30363494 -0.02461905 -0.10257937 0.28722224 -0.041031748 -0.05744445 -0.1805397 0.2585 0.14361112 0.22567461 0.29132542 -0.22567461 0.30363494 0.069753975 -0.16823018 -0.33646035
000010 df 20 22 17 23 2a 10 14 e6 35 3a b9 a5 3c cc ce
       -0.13540477 0.1313016 0.13950795 0.094373025 0.14361112 0.17233334 0.0656508 0.082063496 -0.10668255 0.21746828 0.23798415 -0.29132542 -0.37338892 0.24619049 -0.2133651 -0.20515874
000020 e0 14 03 ea c7 39 40 26 c4 ff 03 bf bf cb fe 06
       -0.1313016 0.082063496 0.012309525 -0.09026985 -0.23388097 0.23388097 0.2626032 0.15592064 -0.24619049 -0.004103175 0.012309525 -0.26670638 -0.26670638 -0.21746828 -0.00820635 0.02461905
000030 dc d2 c4 02 f7 4b 34 a8 1e f9 a3 40 ea 16 c6 d0
       -0.1477143 -0.18874605 -0.24619049 0.00820635 -0.036928575 0.30773813 0.2133651 -0.3610794 0.123095244 -0.028722225 -0.38159525 0.2626032 -0.09026985 0.09026985 -0.23798415 -0.1969524
000040 47 e2 3c e8 01 dc 36 3b 2a 42 f3 1e 63 2f df a2
       0.29132542 -0.123095244 0.24619049 -0.0984762 0.004103175 -0.1477143 0.22157145 0.24208732 0.17233334 0.27080953 -0.053341273 0.123095244 0.40621433 0.19284922 -0.13540477 -0.38569844
000050 bd 0c 14 1c 9c f9 c2 cb b5 18 c4 3f fe d4 ec 3e
       -0.27491271 0.0492381 0.082063496 0.1148889 -0.41031748 -0.028722225 -0.25439686 -0.21746828 -0.30773813 0.0984762 -0.24619049 0.2585 -0.00820635 -0.1805397 -0.082063496 0.25439686
000060 e5 e7 d6 fb 3c 2a 0b c5 fe f6 6a c4 e3 e9 e8 0d
       -0.11078572 -0.10257937 -0.17233334 -0.020515874 0.24619049 0.17233334 0.045134924 -0.24208732 -0.00820635 -0.041031748 0.43493655 -0.24619049 -0.118992075 -0.094373025 -0.0984762 0.053341273
000070 23 c3 07 e3 06 ec c8 e3 d2 0b 4e 1d 25 18 13 51
       0.14361112 -0.25029367 0.028722225 -0.118992075 0.02461905 -0.082063496 -0.2297778 -0.118992075 -0.18874605 0.045134924 0.32004765 0.118992075 0.15181747 0.0984762 0.07796032 0.33235717
000080 b1 4c 02 10 d1 c0 fd 21 ee 0e 35 39 b1 f5 3a 10
       -0.32415083 0.31184128 0.00820635 0.0656508 -0.19284922 -0.2626032 -0.012309525 0.13540477 -0.07385715 0.05744445 0.21746828 0.23388097 -0.32415083 -0.045134924 0.23798415 0.0656508
000090 fd 41 a9 d5 da e5 03 2e fd d1 1f ec cd 1d d5 e0
       -0.012309525 0.26670638 -0.3569762 -0.17643651 -0.15592064 -0.11078572 0.012309525 0.18874605 -0.012309525 -0.19284922 0.12719843 -0.082063496 -0.20926192 0.118992075 -0.17643651 -0.1313016
0000a0 c7 ed 21 3f 1c be 3d 3d 23 2f cc ec d3 fe 19 be
       -0.23388097 -0.07796032 0.13540477 0.2585 0.1148889 -0.27080953 0.25029367 0.25029367 0.14361112 0.19284922 -0.2133651 -0.082063496 -0.18464287 -0.00820635 0.10257937 -0.27080953
0000b0 a0 04 ca c2 e9 3c 21 40 25 c7 24 0d e6 0d 32 1f
       -0.3939048 0.0164127 -0.22157145 -0.25439686 -0.094373025 0.24619049 0.13540477 0.2626032 0.15181747 -0.23388097 0.1477143 0.053341273 -0.10668255 0.053341273 0.20515874 0.12719843
0000c0 f9 44 c6 bc 1e 10 b8 f5 fb b1 04 9d 09 0c 13 e2
       -0.028722225 0.2790159 -0.23798415 -0.2790159 0.123095244 0.0656508 -0.2954286 -0.045134924 -0.020515874 -0.32415083 0.0164127 -0.40621433 0.036928575 0.0492381 0.07796032 -0.123095244
0000d0 4e ff b1 1a d6 ee 2e 32 f7 37 0f 3e 03 fb 32 14
       0.32004765 -0.004103175 -0.32415083 0.10668255 -0.17233334 -0.07385715 0.18874605 0.20515874 -0.036928575 0.22567461 0.061547622 0.25439686 0.012309525 -0.020515874 0.20515874 0.082063496
0000e0 1e de 9e 28 2d f5 42 00 16 0a e5 b4 cc c6 27 12
       0.123095244 -0.13950795 -0.40211114 0.16412699 0.18464287 -0.045134924 0.27080953 0.0 0.09026985 0.041031748 -0.11078572 -0.31184128 -0.2133651 -0.23798415 0.16002382 0.07385715
0000f0 cd 3b 39 3f 2b 28 10 ba c9 f4 29 e9 43 14 17 0c
       -0.20926192 0.24208732 0.23388097 0.2585 0.17643651 0.16412699 0.0656508 -0.28722224 -0.22567461 -0.0492381 0.16823018 -0.094373025 0.27491271 0.082063496 0.094373025 0.0492381

sequential/dense/MatMul i1 [64, 1600] scale=0.0032258222 zero_point=0
000000 e7 05 0e eb ff 10 ff fc ff 07 0c 0b f7 0f fd 18
       -0.080645554 0.016129112 0.04516151 -0.067742266 -0.0032258222 0.051613156 -0.0032258222 -0.012903289 -0.0032258222 0.022580756 0.038709868 0.035484046 -0.0290324 0.048387334 -0.009677467 0.077419735
000010 0b e8 28 1b f8 e7 01 fc 0d 05 07 04 fd 15 06 ed
       0.035484046 -0.077419735 0.1290329 0.0870972 -0.025806578 -0.080645554 0.0032258222 -0.012903289 0.04193569 0.016129112 0.022580756 0.012903289 -0.009677467 0.067742266 0.019354934 -0.06129062
000020 25 06 0f ea 16 09 e9 f5 e6 0e f6 ff 01 0c 04 14
       0.119355425 0.019354934 0.048387334 -0.07096809 0.07096809 0.0290324 -0.07419391 -0.035484046 -0.08387138 0.04516151 -0.032258224 -0.0032258222 0.0032258222 0.038709868 0.012903289 0.06451645
000030 f4 0b 11 0f 06 05 0b 03 f7 ff 11 fc f6 e7 fe f6
       -0.038709868 0.035484046 0.054838978 0.048387334 0.019354934 0.016129112 0.035484046 0.009677467 -0.0290324 -0.0032258222 0.054838978 -0.012903289 -0.032258224 -0.080645554 -0.0064516445 -0.032258224
000040 18 ee f3 e7 10 f1 08 0c f7 ef fc 06 dd f6 03 00
       0.077419735 -0.0580648 -0.04193569 -0.080645554 0.051613156 -0.048387334 0.025806578 0.038709868 -0.0290324 -0.054838978 -0.012903289 0.019354934 -0.11290378 -0.032258224 0.009677467 0.0
000050 fb 01 1d fa ec 03 fa 1a e9 ef d7 f7 12 07 f3 0e
       -0.016129112 0.0032258222 0.09354884 -0.019354934 -0.06451645 0.009677467 -0.019354934 0.08387138 -0.07419391 -0.054838978 -0.13225871 -0.0290324 0.0580648 0.022580756 -0.04193569 0.04516151
000060 1a ef 08 05 08 15 ef 0a fa ff ed cd fb e9 f4 fb
       0.08387138 -0.054838978 0.025806578 0.016129112 0.025806578 0.067742266 -0.054838978 0.032258224 -0.019354934 -0.0032258222 -0.06129062 -0.16451694 -0.016129112 -0.07419391 -0.038709868 -0.016129112
000070 13 0a f3 d5 fa ce 07 f6 12 07 f8 14 e9 f9 fc d8
       0.06129062 0.032258224 -0.04193569 -0.13871035 -0.019354934 -0.16129111 0.022580756 -0.032258224 0.0580648 0.022580756 -0.025806578 0.06451645 -0.07419391 -0.022580756 -0.012903289 -0.1290329
000080 f2 ec 09 0f 11 19 ed f1 f6 04 10 e5 10 08 0c ff
       -0.04516151 -0.06451645 0.0290324 0.048387334 0.054838978 0.080645554 -0.06129062 -0.048387334 -0.032258224 0.012903289 0.051613156 -0.0870972 0.051613156 0.025806578 0.038709868 -0.0032258222
000090 fe 07 0e 27 06 09 fb 0b ee 08 09 1c 11 fc 00 05
       -0.0064516445 0.022580756 0.04516151 0.12580706 0.019354934 0.0290324 -0.016129112 0.035484046 -0.0580648 0.025806578 0.0290324 0.09032302 0.054838978 -0.012903289 0.0 0.016129112
0000a0 01 f8 f0 0b f0 e6 13 fb f4 ff fe 07 f3 f3 df 13
       0.0032258222 -0.025806578 -0.051613156 0.035484046 -0.051613156 -0.08387138 0.06129062 -0.016129112 -0.038709868 -0.0032258222 -0.0064516445 0.022580756 -0.04193569 -0.04193569 -0.10645214 0.06129062
0000b0 fa 14 f2 f9 ee f9 14 08 00 f1 0f 03 fa eb 13 f6
       -0.019354934 0.06451645 -0.04516151 -0.022580756 -0.0580648 -0.022580756 0.06451645 0.025806578 0.0 -0.048387334 0.048387334 0.009677467 -0.019354934 -0.067742266 0.06129062 -0.032258224
0000c0 0c f0 fb 09 14 06 10 16 f4 08 1d f9 05 0d 15 e4
       0.038709868 -0.051613156 -0.016129112 0.0290324 0.06451645 0.019354934 0.051613156 0.07096809 -0.038709868 0.025806578 0.09354884 -0.022580756 0.016129112 0.04193569 0.067742266 -0.09032302
0000d0 16 18 f9 e5 f2 19 12 07 eb 02 03 e0 f3 f6 09 0c
       0.07096809 0.077419735 -0.022580756 -0.0870972 -0.04516151 0.080645554 0.0580648 0.022580756 -0.067742266 0.0064516445 0.009677467 -0.10322631 -0.04193569 -0.032258224 0.0290324 0.038709868
0000e0 04 0b 1c 1e ec d9 0c fc fa e1 12 ef 12 f8 02 fd
       0.012903289 0.035484046 0.09032302 0.09677467 -0.06451645 -0.12580706 0.038709868 -0.012903289 -0.019354934 -0.100000486 0.0580648 -0.054838978 0.0580648 -0.025806578 0.0064516445 -0.009677467
0000f0 15 ee 17 f2 ee 05 fc 07 ea 0e 10 08 11 e8 f5 04
       0.067742266 -0.0580648 0.07419391 -0.04516151 -0.0580648 0.016129112 -0.012903289 0.022580756 -0.07096809 0.04516151 0.051613156 0.025806578 0.054838978 -0.077419735 -0.035484046 0.012903289

sequential/conv2d_1/Conv2D i1 [64, 3, 3, 32]
000000 27 ee 0e e1 e6 24 f2 cf dd d3 d9 f4 f6 02 ff f1
       39 -18 14 -31 -26 36 -14 -49 -35 -45 -39 -12 -10 2 -1 -15
000010 e3 ea fe d2 f0 d7 01 fe fd 02 0b f1 ec 01 06 07
       -29 -22 -2 -46 -16 -41 1 -2 -3 2 11 -15 -20 1 6 7
000020 18 c2 e6 c3 09 e8 df e2 d8 d1 ff e7 02 db fb f9
       24 -62 -26 -61 9 -24 -33 -30 -40 -47 -1 -25 2 -37 -5 -7
000030 f0 f7 f6 f4 0b eb eb 02 0e f4 1b 0b fe cb 13 f0
       -16 -9 -10 -12 11 -21 -21 2 14 -12 27 11 -2 -53 19 -16
000040 2e 8b 1b ae f9 eb f3 ff a4 9f 08 e7 f9 28 d5 5d
       46 -117 27 -82 -7 -21 -13 -1 -92 -97 8 -25 -7 40 -43 93
000050 fd ec 0b 02 0c 16 f3 18 27 22 02 fd 10 c9 0f e1
       -3 -20 11 2 12 22 -13 24 39 34 2 -3 16 -55 15 -31
000060 09 d0 02 e8 e8 03 d7 ec f1 de ea 0a f6 f4 f2 f8
       9 -48 2 -24 -24 3 -41 -20 -15 -34 -22 10 -10 -12 -14 -8
000070 e8 fd f0 d2 db 09 f3 df 0e ee d4 dd 06 f4 f5 f2
       -24 -3 -16 -46 -37 9 -13 -33 14 -18 -44 -35 6 -12 -11 -14
000080 06 d6 ee bd 19 ce fc ef c9 c8 19 f0 07 eb db 37
       6 -42 -18 -67 25 -50 -4 -17 -55 -56 25 -16 7 -21 -37 55
000090 f4 08 fd ef 02 fc e4 0b 0f 1f fc e9 0a b7 f4 e7
       -12 8 -3 -17 2 -4 -28 11 15 31 -4 -23 10 -73 -12 -25
0000a0 12 d1 e9 e6 05 04 11 1f 81 f5 fa ef 1d fd 19 23
       18 -47 -23 -26 5 4 17 31 -127 -11 -6 -17 29 -3 25 35
0000b0 ed fb 2c 1b 0c 04 17 09 e6 11 0e 15 ee 1e f1 bc
       -19 -5 44 27 12 4 23 9 -26 17 14 21 -18 30 -15 -68
0000c0 15 df ed e4 0d f3 01 ff c8 f9 f9 db ec 1a 31 1f
       21 -33 -19 -28 13 -13 1 -1 -56 -7 -7 -37 -20 26 49 31
0000d0 09 e8 e6 0a ee fe d2 ee 10 04 00 10 f2 e8 0d 0c
       9 -24 -26 10 -18 -2 -46 -18 16 4 0 16 -14 -24 13 12
0000e0 09 e4 0f c4 ec 18 01 0a a6 d7 12 f7 27 f6 1b 1c
       9 -28 15 -60 -20 24 1 10 -90 -41 18 -9 39 -10 27 28
0000f0 e0 07 2d 05 0e 1a 20 12 fd fe 03 10 fb cc 0d c5
       -32 7 45 5 14 26 32 18 -3 -2 3 16 -5 -52 13 -59

sequential/conv2d/Conv2D i1 [32, 3, 3, 1]
000000 81 c9 3f 85 1d 61 a8 07 37 30 2c 4c 01 2e e9 81
       -127 -55 63 -123 29 97 -88 7 55 48 44 76 1 46 -23 -127
000010 bd ee de aa 23 cf b9 7f 9f a1 00 41 3f 37 e3 22
       -67 -18 -34 -86 35 -49 -71 127 -97 -95 0 65 63 55 -29 34
000020 2c 81 88 94 d2 d3 58 57 51 7f 18 cc dc 14 2b 98
       44 -127 -120 -108 -46 -45 88 87 81 127 24 -52 -36 20 43 -104
000030 35 e4 8c 7f 38 cd 2d 7f 4b 0e 2d c3 9b 2d f9 22
       53 -28 -116 127 56 -51 45 127 75 14 45 -61 -101 45 -7 34
000040 6d 12 7f 6c 72 d8 dc 81 07 4f 61 81 d1 05 cb b4
       109 18 127 108 114 -40 -36 -127 7 79 97 -127 -47 5 -53 -76
000050 d1 5e 3b 4b 16 f9 ea 81 a7 df 19 75 2d 00 31 52
       -47 94 59 75 22 -7 -22 -127 -89 -33 25 117 45 0 49 82
000060 17 6d 81 fe f9 8a 37 24 81 5a 43 01 53 15 75 fd
       23 109 -127 -2 -7 -118 55 36 -127 90 67 1 83 21 117 -3
000070 46 c9 5c 52 81 4d d5 cf 81 c6 19 0f 59 18 46 4b
       70 -55 92 82 -127 77 -43 -49 -127 -58 25 15 89 24 70 75
000080 ea 3b df b6 95 81 e6 1a d8 96 81 91 0d a0 16 79
       -22 59 -33 -74 -107 -127 -26 26 -40 -106 -127 -111 13 -96 22 121
000090 75 7b ab b1 7f 2f e6 03 65 2e 9d 81 02 66 34 43
       117 123 -85 -79 127 47 -26 3 101 46 -99 -127 2 102 52 67
0000a0 69 28 31 44 bd 64 24 81 43 e4 85 5b 4b 13 56 cf
       105 40 49 68 -67 100 36 -127 67 -28 -123 91 75 19 86 -49
0000b0 81 b3 13 e9 30 71 1d 65 7f 79 93 f4 44 83 a6 0d
       -127 -77 19 -23 48 113 29 101 127 121 -109 -12 68 -125 -90 13
0000c0 7f 76 3f 62 e6 b2 37 5b 04 34 27 81 10 ce ab 0f
       127 118 63 98 -26 -78 55 91 4 52 39 -127 16 -50 -85 15
0000d0 71 83 66 7f 52 04 58 74 b0 56 2b b6 ff 37 81 f5
       113 -125 102 127 82 4 88 116 -80 86 43 -74 -1 55 -127 -11
0000e0 58 81 d8 38 e3 52 3e 40 1e de 9f 81 e5 9f cc ee
       88 -127 -40 56 -29 82 62 64 30 -34 -97 -127 -27 -97 -52 -18
0000f0 ca 56 a8 f4 60 08 c7 3b a8 35 7f f4 3b 1a d3 4b
       -54 86 -88 -12 96 8 -57 59 -88 53 127 -12 59 26 -45 75
