practice/quantized_mnist_model.tflite (tflite, 129048 bytes, 4 tensors)

sequential/dense_1/MatMul i1 [10, 64] scale=0.0040450967 zero_point=0
000000 c5 14 cf d2 b1 d3 36 16 f5 ca 4c 22 00 27 39 53
       -0.23866071 0.080901936 -0.19820973 -0.18607445 -0.31956264 -0.18202935 0.21843523 0.08899213 -0.044496063 -0.21843523 0.30742735 0.13753329 0.0 0.15775877 0.23057051 0.33574304
000010 d6 2d b8 37 c5 a4 c2 3e 0a c8 37 b4 24 ef e7 f9
       -0.16989405 0.18202935 -0.29124695 0.22248031 -0.23866071 -0.3721489 -0.250796 0.250796 0.040450968 -0.22652541 0.22248031 -0.30742735 0.14562348 -0.068766646 -0.101127416 -0.028315676
000020 06 b4 18 1a c2 0d 48 db 1d 0c cd 0b ec 23 af 50
       0.02427058 -0.30742735 0.09708232 0.105172515 -0.250796 0.052586257 0.29124695 -0.14966857 0.117307805 0.04854116 -0.20629993 0.044496063 -0.080901936 0.14157839 -0.32765284 0.32360774
000030 29 fb 3e 04 f4 e4 dc ab ad 1d c8 d0 c4 d6 e2 ff
       0.16584897 -0.020225484 0.250796 0.016180387 -0.04854116 -0.113262706 -0.14562348 -0.3438332 -0.33574304 0.117307805 -0.22652541 -0.19416463 -0.2427058 -0.16989405 -0.1213529 -0.0040450967
000040 03 28 bb 2f 40 ca dc d5 63 af b5 2d 45 52 df 37
       0.01213529 0.16180387 -0.27911168 0.19011955 0.2588862 -0.21843523 -0.14562348 -0.17393915 0.40046456 -0.32765284 -0.30338225 0.18202935 0.27911168 0.33169794 -0.1334882 0.22248031
000050 05 39 ed 23 d5 3d e7 16 e0 f3 59 ac 1a 48 ba e3
       0.020225484 0.23057051 -0.07685684 0.14157839 -0.17393915 0.24675089 -0.101127416 0.08899213 -0.1294431 -0.052586257 0.3600136 -0.3397881 0.105172515 0.29124695 -0.28315678 -0.117307805
000060 20 3a df 0f 32 b6 32 f3 1c 31 b0 e7 2e c1 12 a2
       0.1294431 0.23461561 -0.1334882 0.06067645 0.20225483 -0.29933715 0.20225483 -0.052586257 0.113262706 0.19820973 -0.32360774 -0.101127416 0.18607445 -0.2548411 0.07281174 -0.3802391
000070 b4 1a f2 e4 cc f2 0a 4b bb be d3 cc eb e6 2c f4
       -0.30742735 0.105172515 -0.056631353 -0.113262706 -0.21034503 -0.056631353 0.040450968 0.30338225 -0.27911168 -0.2669764 -0.18202935 -0.21034503 -0.08494703 -0.105172515 0.17798425 -0.04854116
000080 0e d1 d1 37 e3 47 e4 d6 f7 bc 17 bd 29 41 08 fa
       0.056631353 -0.19011955 -0.19011955 0.22248031 -0.117307805 0.28720185 -0.113262706 -0.16989405 -0.03640587 -0.27506658 0.093037225 -0.2710215 0.16584897 0.2629313 0.032360774 -0.02427058
000090 2b 94 35 ea c9 45 b5 32 0f f4 21 11 01 f5 27 cf
       0.17393915 -0.43687046 0.21439013 -0.08899213 -0.22248031 0.27911168 -0.30338225 0.20225483 0.06067645 -0.04854116 0.1334882 0.068766646 0.0040450967 -0.044496063 0.15775877 -0.19820973
0000a0 b5 a8 14 ce 1d 25 b3 1f 0e fb 06 d3 23 e5 34 ba
       -0.30338225 -0.3559685 0.080901936 -0.20225483 0.117307805 0.14966857 -0.31147245 0.125398 0.056631353 -0.020225484 0.02427058 -0.18202935 0.14157839 -0.109217614 0.21034503 -0.28315678
0000b0 40 ef 21 ac 2b 22 34 3d c6 d9 c3 37 32 f7 1c c3
       0.2588862 -0.068766646 0.1334882 -0.3397881 0.17393915 0.13753329 0.21034503 0.24675089 -0.23461561 -0.15775877 -0.24675089 0.22248031 0.20225483 -0.03640587 0.113262706 -0.24675089
0000c0 41 c6 ee be b8 ef e3 49 13 02 cf ba aa a2 11 10
       0.2629313 -0.23461561 -0.07281174 -0.2669764 -0.29124695 -0.068766646 -0.117307805 0.29529205 0.07685684 0.008090193 -0.19820973 -0.28315678 -0.3478783 -0.3802391 0.068766646 0.06472155
0000d0 35 d5 d9 d2 30 48 1b c8 f5 dc b9 33 d8 23 07 b0
       0.21439013 -0.17393915 -0.15775877 -0.18607445 0.19416463 0.29124695 0.109217614 -0.22652541 -0.044496063 -0.14562348 -0.28720185 0.20629993 -0.16180387 0.14157839 0.028315676 -0.32360774
0000e0 0c 32 29 eb 2d f7 9f 2a 03 c5 06 0b ca 08 19 17
       0.04854116 0.20225483 0.16584897 -0.08494703 0.18202935 -0.03640587 -0.39237437 0.16989405 0.01213529 -0.23866071 0.02427058 0.044496063 -0.21843523 0.032360774 0.101127416 0.093037225
0000f0 b2 4e 06 de 13 d3 40 49 51 bc 42 d3 37 af 18 2a
       -0.31551754 0.31551754 0.02427058 -0.13753329 0.07685684 -0.18202935 0.2588862 0.29529205 0.32765284 -0.27506658 0.2669764 -0.18202935 0.22248031 -0.32765284 0.09708232 0.16989405

sequential/dense/MatMul i1 [64, 1600] scale=0.002851942 zero_point=0
000000 f3 10 0f fe 06 fc 10 f2 e9 ee f9 e9 f3 f0 0f ee
       -0.037075248 0.045631073 0.042779133 -0.005703884 0.017111652 -0.011407768 0.045631073 -0.03992719 -0.065594666 -0.05133496 -0.019963594 -0.065594666 -0.037075248 -0.045631073 0.042779133 -0.05133496
000010 00 ff e9 08 0e eb 0d f8 03 f7 06 05 08 ef eb 0a
       0.0 -0.002851942 -0.065594666 0.022815537 0.03992719 -0.059890784 0.037075248 -0.022815537 0.008555826 -0.02566748 0.017111652 0.014259711 0.022815537 -0.048483014 -0.059890784 0.028519422
000020 eb fd 0a 01 fb ec f4 ee f6 f2 02 01 00 10 02 fe
       -0.059890784 -0.008555826 0.028519422 0.002851942 -0.014259711 -0.057038844 -0.034223303 -0.05133496 -0.028519422 -0.03992719 0.005703884 0.002851942 0.0 0.045631073 0.005703884 -0.005703884
000030 f0 fa 10 06 eb 0c fc 0c fa 06 fe f0 eb 0c 0f 0c
       -0.045631073 -0.017111652 0.045631073 0.017111652 -0.059890784 0.034223303 -0.011407768 0.034223303 -0.017111652 0.017111652 -0.005703884 -0.045631073 -0.059890784 0.034223303 0.042779133 0.034223303
000040 f8 03 eb 01 09 0e fe f6 02 eb 12 05 eb 0f 06 f4
       -0.022815537 0.008555826 -0.059890784 0.002851942 0.02566748 0.03992719 -0.005703884 -0.028519422 0.005703884 -0.059890784 0.05133496 0.014259711 -0.059890784 0.042779133 0.017111652 -0.034223303
000050 fa 03 01 13 ee f3 11 08 eb 04 fb 09 ec ec 11 f7
       -0.017111652 0.008555826 0.002851942 0.0541869 -0.05133496 -0.037075248 0.048483014 0.022815537 -0.059890784 0.011407768 -0.014259711 0.02566748 -0.057038844 -0.057038844 0.048483014 -0.02566748
000060 0e fa fe f3 05 09 02 f3 fb 0e f3 12 ee f9 fa fa
       0.03992719 -0.017111652 -0.005703884 -0.037075248 0.014259711 0.02566748 0.005703884 -0.037075248 -0.014259711 0.03992719 -0.037075248 0.05133496 -0.05133496 -0.019963594 -0.017111652 -0.017111652
000070 f6 f0 10 02 0e ef 0c fa f5 0b fc f5 eb 03 f3 eb
       -0.028519422 -0.045631073 0.045631073 0.005703884 0.03992719 -0.048483014 0.034223303 -0.017111652 -0.031371363 0.031371363 -0.011407768 -0.031371363 -0.059890784 0.008555826 -0.037075248 -0.059890784
000080 02 02 fe 0a eb f1 fc ec f2 0a f6 ea ef f3 01 ef
       0.005703884 0.005703884 -0.005703884 0.028519422 -0.059890784 -0.042779133 -0.011407768 -0.057038844 -0.03992719 0.028519422 -0.028519422 -0.062742725 -0.048483014 -0.037075248 0.002851942 -0.048483014
000090 ee fe 03 09 02 0d fb eb 06 ef 0d f8 ec fb 0e f3
       -0.05133496 -0.005703884 0.008555826 0.02566748 0.005703884 0.037075248 -0.014259711 -0.059890784 0.017111652 -0.048483014 0.037075248 -0.022815537 -0.057038844 -0.014259711 0.03992719 -0.037075248
0000a0 fb fa 02 05 ec 02 f4 f2 02 ec 02 0a 11 09 06 f4
       -0.014259711 -0.017111652 0.005703884 0.014259711 -0.057038844 0.005703884 -0.034223303 -0.03992719 0.005703884 -0.057038844 0.005703884 0.028519422 0.048483014 0.02566748 0.017111652 -0.034223303
0000b0 0b ef e9 13 f8 f3 04 f9 f5 05 05 10 02 08 0d eb
       0.031371363 -0.048483014 -0.065594666 0.0541869 -0.022815537 -0.037075248 0.011407768 -0.019963594 -0.031371363 0.014259711 0.014259711 0.045631073 0.005703884 0.022815537 0.037075248 -0.059890784
0000c0 eb 01 02 f9 fe e8 04 01 f9 f0 fc ed ef 0d f7 f4
       -0.059890784 0.002851942 0.005703884 -0.019963594 -0.005703884 -0.06844661 0.011407768 0.002851942 -0.019963594 -0.045631073 -0.011407768 -0.0541869 -0.048483014 0.037075248 -0.02566748 -0.034223303
0000d0 f4 08 f5 10 fa fe e9 07 f9 e9 0e 06 f8 12 fb fc
       -0.034223303 0.022815537 -0.031371363 0.045631073 -0.017111652 -0.005703884 -0.065594666 0.019963594 -0.019963594 -0.065594666 0.03992719 0.017111652 -0.022815537 0.05133496 -0.014259711 -0.011407768
0000e0 0a 00 f1 f3 0e f4 ff eb f7 f8 fb ee 08 eb 0c f1
       0.028519422 0.0 -0.042779133 -0.037075248 0.03992719 -0.034223303 -0.002851942 -0.059890784 -0.02566748 -0.022815537 -0.014259711 -0.05133496 0.022815537 -0.059890784 0.034223303 -0.042779133
0000f0 0e 0e 04 fc f6 0d f5 f9 f7 00 e9 01 09 e9 09 ee
       0.03992719 0.03992719 0.011407768 -0.011407768 -0.028519422 0.037075248 -0.031371363 -0.019963594 -0.02566748 0.0 -0.065594666 0.002851942 0.02566748 -0.065594666 0.02566748 -0.05133496

sequential/conv2d_1/Conv2D i1 [64, 3, 3, 32]
000000 81 43 05 0a ed bc d6 d8 b3 c4 f4 bd dc a4 11 11
       -127 67 5 10 -19 -68 -42 -40 -77 -60 -12 -67 -36 -92 17 17
000010 fb f2 2c 21 15 a0 b6 7f ca 17 e2 18 10 1a 11 19
       -5 -14 44 33 21 -96 -74 127 -54 23 -30 24 16 26 17 25
000020 f4 2f f6 19 ee 9e 32 95 ff e4 f6 9d f8 ed 03 e7
       -12 47 -10 25 -18 -98 50 -107 -1 -28 -10 -99 -8 -19 3 -25
000030 d3 0d f1 1e 29 8b 1e 1c f7 18 ca c9 e9 3a fa 33
       -45 13 -15 30 41 -117 30 28 -9 24 -54 -55 -23 58 -6 51
000040 17 cf ff c5 cb c9 3c 98 d4 e5 db ba d2 05 de d0
       23 -49 -1 -59 -53 -55 60 -104 -44 -27 -37 -70 -46 5 -34 -48
000050 ad cf c8 ee bf f9 e9 04 b5 bb 1c c4 d8 ca 10 b4
       -83 -49 -56 -18 -65 -7 -23 4 -75 -69 28 -60 -40 -54 16 -76
000060 e1 12 17 d1 e0 29 fb bb d0 f9 0b ff c4 b9 d8 01
       -31 18 23 -47 -32 41 -5 -69 -48 -7 11 -1 -60 -71 -40 1
000070 bd fd ff 27 b9 e8 ac e5 e3 ef e3 c7 ef 02 32 cd
       -67 -3 -1 39 -71 -24 -84 -27 -29 -17 -29 -57 -17 2 50 -51
000080 39 31 18 19 df 45 ed 9c fc 2b 0e 16 10 eb 32 0a
       57 49 24 25 -33 69 -19 -100 -4 43 14 22 16 -21 50 10
000090 33 f7 ad 5a d9 28 e5 a0 17 c1 0c ff fd 10 16 3d
       51 -9 -83 90 -39 40 -27 -96 23 -63 12 -1 -3 16 22 61
0000a0 92 1c c6 04 26 00 ad e6 f1 2a 18 49 1a 01 f7 12
       -110 28 -58 4 38 0 -83 -26 -15 42 24 73 26 1 -9 18
0000b0 19 f7 d9 0b 35 27 ee fd 32 f1 1b ff dd 4c f9 07
       25 -9 -39 11 53 39 -18 -3 50 -15 27 -1 -35 76 -7 7
0000c0 f6 de 03 14 09 28 e4 fd 0a ea 26 1e 3f 39 3b 3d
       -10 -34 3 20 9 40 -28 -3 10 -22 38 30 63 57 59 61
0000d0 0e 3d e8 26 de 4e 66 dd 26 e6 2f 42 f6 e7 0e c2
       14 61 -24 38 -34 78 102 -35 38 -26 47 66 -10 -25 14 -62
0000e0 17 ef dc 07 0c 34 fa 15 df d3 ff 37 25 67 27 f8
       23 -17 -36 7 12 52 -6 21 -33 -45 -1 55 37 103 39 -8
0000f0 f9 df 0c f7 ca f6 6c de ee 4f 9a 22 49 bb ba ce
       -7 -33 12 -9 -54 -10 108 -34 -18 79 -102 34 73 -69 -70 -50

sequential/conv2d/Conv2D i1 [32, 3, 3, 1]
000000 65 09 a6 3f f5 81 2b ac 85 09 41 55 a6 25 38 81
       101 9 -90 63 -11 -127 43 -84 -123 9 65 85 -90 37 56 -127
000010 af 52 06 2a 7f 81 e2 53 a8 ca 0f e5 21 af 6a e5
       -81 82 6 42 127 -127 -30 83 -88 -54 15 -27 33 -81 106 -27
000020 c9 37 7f f9 e1 69 ed 20 32 46 25 7f 09 51 33 27
       -55 55 127 -7 -31 105 -19 32 50 70 37 127 9 81 51 39
000030 50 14 81 09 8b d6 58 e7 8c 72 fa 81 39 2b ce 72
       80 20 -127 9 -117 -42 88 -25 -116 114 -6 -127 57 43 -50 114
000040 76 46 ef f9 0b 8b 81 ae d3 98 81 48 3d 01 25 52
       118 70 -17 -7 11 -117 -127 -82 -45 -104 -127 72 61 1 37 82
000050 39 5d 39 2f c0 08 d3 81 48 69 19 fb fd fa 6e 65
       57 93 57 47 -64 8 -45 -127 72 105 25 -5 -3 -6 110 101
000060 37 87 81 9c 8d 21 8c e8 07 4f 69 7f 90 a1 cc 5f
       55 -121 -127 -100 -115 33 -116 -24 7 79 105 127 -112 -95 -52 95
000070 d1 2f 52 7f 37 b5 12 25 65 71 f6 4e d0 81 fe e9
       -47 47 82 127 55 -75 18 37 101 113 -10 78 -48 -127 -2 -23
000080 57 fb 5e 57 53 3f 81 02 a2 81 12 39 ef 13 2d 60
       87 -5 94 87 83 63 -127 2 -94 -127 18 57 -17 19 45 96
000090 2e 5c 1d dd 4e 4f 5f 7f 3a 16 10 81 cd f9 1b ee
       46 92 29 -35 78 79 95 127 58 22 16 -127 -51 -7 27 -18
0000a0 52 52 3f 27 39 28 23 3c 81 8d ad 9a c9 68 81 22
       82 82 63 39 57 40 35 60 -127 -115 -83 -102 -55 104 -127 34
0000b0 56 ad 1c 1b 5e 00 81 5c 75 68 a9 16 1a dc 81 b3
       86 -83 28 27 94 0 -127 92 117 104 -87 22 26 -36 -127 -77
0000c0 a6 fb 27 de 1f 4d 81 c2 44 f7 60 10 30 49 a9 27
       -90 -5 39 -34 31 77 -127 -62 68 -9 96 16 48 73 -87 39
0000d0 3c 1a b8 29 6f aa 81 f8 d8 20 18 7f 4d 77 31 4e
       60 26 -72 41 111 -86 -127 -8 -40 32 24 127 77 119 49 78
0000e0 44 b3 50 7f 3b 1c a6 aa a2 39 81 86 bb 37 e5 a8
       68 -77 80 127 59 28 -90 -86 -94 57 -127 -122 -69 55 -27 -88
0000f0 41 16 76 ac 00 3d 3e 5c 5c 04 c0 81 0d 10 39 52
       65 22 118 -84 0 61 62 92 92 4 -64 -127 13 16 57 82
