practice/unquantized_mnist_model.tflite (tflite, 491120 bytes, 8 tensors)

sequential/conv2d/BiasAdd/ReadVariableOp f4 [32]
00000000: 402c 533d 2649 32bd ce8d e63c d56f 00bd
00000010: 157e bcbd f05f 31bb d666 0bbc 0364 053d
00000020: a633 ccbb bd8f dbbd 749a 34bd 1b95 73bc
00000030: 5c02 dfbb 91e5 6abd dc83 d7bd ec93 aebb
00000040: 6d90 85bd b00b 56bd 91ba 81ba c88e a7bb
00000050: 2130 0dbe c463 b83d b504 68bd 19e4 82bc
00000060: 3651 61bd 3a3f eabc 4aab 763d 3457 27bd
00000070: e13b 42bb abf4 95bd 8b45 9abd b737 b0bd
0.051555872 -0.04352679 0.02814379 -0.03135665 -0.09203736 -0.002706524 -0.008508405 0.03256608
-0.006231743 -0.10720775 -0.04409261 -0.0148670925 -0.006805701 -0.057347838 -0.10523197 -0.0053276923
-0.06521688 -0.05225724 -0.000989752 -0.0051134564 -0.13787891 0.09003404 -0.056645114 -0.015977906
-0.05500909 -0.028594602 0.060221948 -0.040854648 -0.0029637741 -0.07322057 -0.075327955 -0.08604377

sequential/conv2d_1/BiasAdd/ReadVariableOp f4 [64]
00000000: 201f 09bd 2db5 1ebc 2298 4e3b f2fa debc
00000010: e47f d6bd 3a2a 283d a7b4 8cbd 9f2e 37bd
00000020: 12af 80bc 723e 84bd 957a 75bd eb29 06bc
00000030: 6e68 44bd b758 953b b794 b2bc 459a 74bd
00000040: 75b9 76bd 27ef 0fbd 205c a7bb 88a1 30bd
00000050: 6093 3bbd 877a 58bd 71fb 94bd 3023 79bd
00000060: 7708 34bd f727 0dbd 187f 3cbd 1bc9 0bbd
00000070: 8a53 efbc 4776 1fbd d054 8dbd a4c1 0ebc
00000080: fc8d 0b3b 2203 85bb 237c 34bd e09d 87bc
00000090: 2f98 f9bc bded d33b 43a8 d3bc 67fa fabb
000000a0: 745c 41bc 597e cdbc fdf1 2dbd 83d5 d4bc
000000b0: 61f5 553c 7cef 66bd 4c3f 9dbd bf29 2abd
000000c0: c275 b5bc 191e 82bd 2021 12bd a78a bfbd
000000d0: 1bdc a9bc 2319 ffbc 7b46 28bc 4b58 b3bd
000000e0: 74ca c1bd 724f a13c 840e 38bd b058 4ebd
000000f0: 18ae 2cbd 627f 51bd 6fa2 01bc 678b 54bc
-0.03347695 -0.00968675 0.0031523784 -0.02721927 -0.10473612 0.041055895 -0.06870394 -0.044722196
-0.01570848 -0.06457223 -0.059931356 -0.008188705 -0.047951154 0.004557695 -0.021799428 -0.059717435
-0.06023546 -0.035140183 -0.0051074177 -0.0431228 -0.045794845 -0.052851226 -0.07274521 -0.060824573
-0.043953385 -0.03446194 -0.046019644 -0.034127336 -0.02921464 -0.038931157 -0.06900942 -0.00871316
0.0021294346 -0.0040592114 -0.0440637 -0.016554773 -0.030468075 0.0064675496 -0.02583707 -0.007659245
-0.011801828 -0.025084661 -0.042467106 -0.025980717 0.013058991 -0.056380734 -0.076780885 -0.04154372
-0.022150878 -0.06353397 -0.03567612 -0.09352618 -0.020734837 -0.031139916 -0.01027071 -0.08757075
-0.09462443 0.019691203 -0.04493572 -0.050377548 -0.042158216 -0.051146872 -0.007912262 -0.012972689

sequential/conv2d/Conv2D f4 [32, 3, 3, 1]
00000000: c703 9d3e 3feb e43c 407f 8bbe 171f 433e
00000010: 1008 0abd 6ac3 c5be 25c6 043e f93c 83be
00000020: 2423 c0be 3f71 a83c 390e 1a3e 33a3 4a3e
00000030: 1dc8 55be 2b98 b23d eb36 053e 857a 97be
00000040: a47c 41be 483b 443e 7665 8d3c 1a06 eb3d
00000050: a4e7 b13e 7e00 b2be db3e a8bd f0cb 673e
00000060: cf48 75be 71c0 18be 794c 2d3d 4214 4bbd
00000070: 2030 763d a40f 17be eec2 443e f6da 46bd
00000080: c4aa cebd eca7 cc3d d9d0 6c3e 8274 50bc
00000090: 36e7 25bd 42fb 0d3e aa2a c9bc 5adf 2e3d
000000a0: a2b7 873d e02a be3d debc 4a3d 174b 2c3e
000000b0: fca6 4c3c dcf8 703e 238e 163e a9bc e63d
000000c0: f996 6c3e ea56 6e3d d9b5 bcbe 8a36 d83c
000000d0: 9c47 adbe dd85 f7bd 61af 573e bea7 76bd
000000e0: d280 8fbe 09f3 8c3e 212a 80bc f883 9cbe
000000f0: 31e7 0b3e 1007 d23d 954c f6bd c75d a13e
00000100: df2f a73e 100b 463e ec41 45bd 09e6 a8bc
00000110: caa5 ef3c d8f1 a5be 882e b4be fed1 67be
00000120: db40 f0bd a072 8abe e69d a9be 111f 3f3e
00000130: c303 233e b62c b63a 0d9b c43d a8d6 5a3e
00000140: c06e 173e d3fa 1e3e d729 c43d d033 a03d
00000150: c0d5 d9bd e5ab 553c 73ff 98bd d98e 59be
00000160: d13f f53d 6e96 333e 7b81 283d baed 0ebc
00000170: 2008 98bb aca6 2dbc a9f5 3a3e c460 2c3e
00000180: d489 bb3d 78d4 4ebe 239e 58be 8d19 67be
00000190: 4a64 85be 74ba 983d 37f4 86be e860 61bd
000001a0: 6c09 813c 2262 363e 473b 723e dd2d 933e
000001b0: 754f 4dbe 6802 2fbe cca0 c0bd a1a6 2e3e
000001c0: 177b adbd 26a4 ad3d fdd4 153e ea11 693e
000001d0: 89ab c93d bf0b 31be 66b7 2a3d 4090 af3d
000001e0: c050 6f3e 02fd 843e ba19 bebc 08b2 373e
000001f0: 9e84 e4bd 61c8 95be 7bff 86bb fa0c 34bd
00000200: 139d 283e 8246 28bc e9f7 353e a066 273e
00000210: a4dd 203e 8a34 f23d 3c5f 75be 4641 e13b
00000220: 038a 8dbe 26f9 bebe 18ec 5c3d 349b 2b3e
00000230: e2bf 4fbd 657e 683d e96a 073e d3cd 8f3e
00000240: 48f3 8d3d be12 0d3e 476b 2e3d 5a73 53bd
00000250: 9da8 ee3d 96d4 f03d cf75 113e 414c 423e
00000260: 8ab4 b23d b2cc 593d c917 253d 9ae3 9ebe
00000270: cd57 00be efca 89bc 3e14 853d 3c24 31bd
00000280: 0691 4d3e 80e1 4c3e 149f 0e3e 08e0 b33d
00000290: d342 013e 8dc0 b73d a4e4 9d3d 3c55 093e
000002a0: a1cd 90be 7ece 82be 4295 3dbe 536c 9abe
000002b0: f784 25be 5c18 9d3e c58b bfbe 147a ca3d
000002c0: f6aa 813e 7c19 7bbe 81bd ab3d 6449 a53d
000002d0: d7cc 1b3e 96eb 403a 2d13 53be 8623 183e
000002e0: 06a2 413e 7664 2c3e fdb7 10be e9e5 103d
000002f0: f39d 2e3d 9eb5 0ebe 4e15 f9be cc5f 96be
00000300: f149 b0be fdd6 9abc 6f7c 193e d30e 07be
00000310: d618 f33d aae1 963e 6028 a6be 2114 23be
00000320: 351c 323e 6a86 c5bc aa80 7c3e 7209 263d
00000330: d0b3 fa3d 4360 3f3e 2869 64be 9c62 e63d
00000340: 6592 2f3e 9111 973d 824a 54be 97bf f03d
00000350: b9e7 a23e fe11 7dbe 1d75 babe afd1 c3bc
00000360: ceb1 2dbd 0bab 0b3d c615 cb3c 3b81 083e
00000370: ebbb a43d 2ac5 ff3d ac7b 533d 1325 a83d
00000380: 4488 923d 4b7f c9bd 9071 d03d 221d 253e
00000390: 1010 9a3d 94cc 123d 40c4 e8bd edeb debd
000003a0: e915 f4bd be4f 933d aa1c 9ebe e81f 98be
000003b0: f8df 2bbe 3bee 073e ca64 86bd 8df3 59be
000003c0: 9b9d 213e 2fe6 5d3d 9879 933e 203a 3abe
000003d0: 5085 e1b7 f276 073e 04a7 0a3e 8975 4d3e
000003e0: 08cc 4d3e 9a60 0c3c 9cc2 0dbe 614b 8dbe
000003f0: ea1b 0b3d e77e 2b3d 02e5 153e 5cb6 553e
0.30666944 0.027944205 -0.27245522 0.19054829 -0.033699095 -0.38625652 0.12966211 -0.25632456
-0.3752681 0.020561812 0.15044488 0.19788818 -0.20877118 0.0872043 0.13009231 -0.29585662
-0.18895203 0.19163239 0.017260294 0.11475773 0.3474704 -0.34766 -0.08215114 0.2263639
-0.23953556 -0.1491716 0.042309258 -0.049579866 0.06010449 -0.1475206 0.19214985 -0.04854866
-0.10091165 0.09992966 0.23126544 -0.01272309 -0.040503703 0.13865378 -0.024556477 0.042693473
0.06626822 0.092855215 0.049496524 0.1682552 0.012490984 0.23532432 0.14702658 0.11266453
0.23104466 0.058188356 -0.3685749 0.026393194 -0.33843696 -0.12086079 0.21062995 -0.060218565
-0.2802797 0.2752917 -0.015645089 -0.30569434 0.13662411 0.10255253 -0.120263256 0.3151686
0.3265371 0.19340158 -0.04815857 -0.020617502 0.02925386 -0.32411075 -0.3519175 -0.226387
-0.1173112 -0.27040577 -0.3312828 0.18664195 0.15919404 0.0013898823 0.09599886 0.21370947
0.14788342 0.1552537 0.09578293 0.078223825 -0.10636473 0.013041471 -0.07470598 -0.21245898
0.11975063 0.17537853 0.041139107 -0.008723671 -0.0046396405 -0.01059882 0.18257774 0.16833788
0.09157148 -0.20198238 -0.21154074 -0.2256834 -0.26053077 0.07457438 -0.26358196 -0.055024058
0.015751563 0.17810872 0.23655425 0.28745928 -0.20049842 -0.17090762 -0.094056696 0.17055751
-0.08470743 0.084785745 0.1463203 0.2276074 0.09847171 -0.17289637 0.04167881 0.085724354
0.23370647 0.2597428 -0.023205627 0.17939007 -0.11158107 -0.2925444 -0.004119811 -0.043957688
0.16466169 -0.010270717 0.17770351 0.16347742 0.15709549 0.11826427 -0.2396211 0.0068742363
-0.27644357 -0.3729946 0.053936094 0.16758424 -0.050720103 0.056761164 0.13224377 0.2808672
0.06931168 0.13776681 0.042582776 -0.05162368 0.11653254 0.117592975 0.14205097 0.18974401
0.08725841 0.05317373 0.040305886 -0.3103302 -0.12533493 -0.0168204 0.064980015 -0.043247446
0.20074853 0.20007896 0.13927871 0.08782965 0.12623148 0.08972273 0.07709625 0.1341142
-0.28281882 -0.25548166 -0.18513969 -0.3016077 -0.16164003 0.30682647 -0.37411323 0.09886566
0.25325745 -0.2452144 0.083857544 0.08070639 0.15214859 0.0007359324 -0.20612784 0.14857301
0.18909463 0.16835198 -0.14132686 0.03537551 0.0426311 -0.13936469 -0.48649067 -0.29369962
-0.34431413 -0.018901343 0.14988874 -0.13189249 0.118699715 0.29469043 -0.3245268 -0.15925647
0.17393573 -0.024111945 0.24658456 0.04053635 0.12241328 0.18689065 -0.22305739 0.11249277
0.17145689 0.073763974 -0.20731547 0.11755293 0.31817415 -0.24713895 -0.36417475 -0.023903696
-0.042405896 0.034098666 0.024790656 0.13330548 0.08043655 0.12488778 0.051631615 0.08210196
0.07154897 -0.09838732 0.1017791 0.16124395 0.07522595 0.035839632 -0.11365557 -0.10884843
-0.119182415 0.07192944 -0.30881244 -0.29711843 -0.16784656 0.13274471 -0.06562193 -0.21284313
0.15782778 0.0541746 0.28803706 -0.18186235 -2.6884169e-05 0.13228968 0.13540274 0.20064367
0.20097363 0.0085679535 -0.13843769 -0.27596572 0.033962168 0.04186907 0.14638141 0.20870346

sequential/conv2d_1/Conv2D f4 [64, 3, 3, 32]
00000000: 6b13 66be 9c66 f43d bacf 023c 1d4a 913c
00000010: 45f1 08bd c3f8 f5bd 700f 97bd 14c2 90bd
00000020: 99bf 0abe 12c1 d9bd 3f62 b0bc 5a19 f1bd
00000030: c944 83bd 9245 27be ec22 f83c 492e fc3c
00000040: 0623 1abc fe7a c4bc aa31 9e3d bd7e 703d
00000050: 898d 153d 322a 2dbe 83cf 05be 558b 653e
00000060: 8d0d c3bd 5b07 263d 06e6 5abd 36e7 2e3d
00000070: 27f1 ec3c e66d 3d3d 64b1 fc3c 6a9e 353d
00000080: 0bb2 b3bc aa72 ab3d 0df5 91bc 4612 343d
00000090: 081e febc e976 31be 4c7b b63d 2858 42be
000000a0: 7966 29bb 7c10 4abd b1ee 96bc c7e6 32be
000000b0: 5bb6 6fbc 17d0 09bd 7ed2 ab3b 3bad 36bd
000000c0: e44b a2bd a3fe c03c 4ea3 dcbc b7dd 563d
000000d0: 8ef1 923d 7843 53be a0c5 593d 6be4 4a3d
000000e0: 7aef 84bc 2c7f 2a3d 7a41 c5bd 43b6 c6bd
000000f0: 9da9 23bd 0c83 d33d 664d 35bc 4985 b73d
00000100: 61f8 283d 2717 b2bd be5a bdba 13b2 d4bd
00000110: 2468 c0bd b86d c6bd 92a5 d93d 8fad 3bbe
00000120: 44d9 9dbd 098f 43bd 7bc0 85bd 5f2a fcbd
00000130: f199 a7bd 9069 1d3c 2631 77bd 0db3 acbd
00000140: e67b 16be 7d7a b1bd 4f88 c9bd bd1f febc
00000150: 932b eabd 9566 4fbc e411 29bd cc02 d03b
00000160: ff25 07be 5e5e fbbd 76c4 493d dfd6 d8bd
00000170: 7400 92bd 8df8 c2bd a0e2 eb3c 7788 09be
00000180: 2a0f 5dbd 17ca ff3c a22c 293d 3eeb a9bd
00000190: b581 69bd f7a3 933d 6e18 0bbc 1d73 f9bd
000001a0: e678 acbd efb2 56bc 73e2 9e3c cd76 0ebb
000001b0: bc60 d8bd e9bd 00be 9689 91bd 1c44 ba3a
000001c0: 61b8 f2bd bcc5 97bb 16c0 87ba 8e8d 8d3d
000001d0: 7844 00be 6852 2cbd 2355 17be 03e3 46bd
000001e0: 5f6f 51bd 83f5 f3bc a3cb 54bd 3371 cebd
000001f0: 3b3f f2bc 72b6 713b 5d89 b63d 5859 b7bd
00000200: a644 cf3d 4f22 b13d 70dd 2e3d e332 363d
00000210: 3932 6ebd 64a5 fb3d c836 0bbd b083 35be
00000220: 4c2d d1bb a493 9a3d e054 cd3c 995e 203d
00000230: a564 e73c 6c19 1bbd 08b6 b33d 7699 903c
00000240: 1f4e ba3d e8ac 7bbc f2e4 15be 37af 233e
00000250: 0d24 8ebd b8c1 903d f13e 42bd 50b6 2dbe
00000260: 1c82 273d 999d e5bd 07de b03c 3aae beba
00000270: 5ca5 bdbb 9e32 e33c c595 1e3d 4466 db3d
00000280: ab8f 47be 96fd 483d aa2a d1bd 3ce6 dc3b
00000290: afde 8a3d c8fd 74b8 0985 15be 0c8e 3cbd
000002a0: af81 d6bc 1fa2 993d fe38 2e3d 8196 043e
000002b0: 92a5 3c3d ec40 873a 220c 7cbc 900c 063d
000002c0: 161f 353d 6678 76bc cae5 8dbd df49 9e3c
000002d0: f06f c13d f70c 8d3d 0161 03bd 2f0c c0bb
000002e0: c868 b43d 6362 dfbc f41c 463d 59c1 82ba
000002f0: f592 7cbd d537 093e 9cef 40bc 7705 553c
00000300: 5cc7 8ebc c707 73bd 5c89 9b3b 2439 0f3d
00000310: fb9f 773c 8d2f 913d f38f 47bd 364d b2bb
00000320: 29fc 963c c11f 1dbd 926c 893d c967 5a3d
00000330: 2b0f e33d 96e3 cf3d 228e d53d 198b dc3d
00000340: 5332 c43c d8e6 db3d 146d 2ebd 430a 8b3d
00000350: ea43 79bd 7ef3 0d3e 13f9 373e 820c 7fbd
00000360: 1f6f 883d 85c1 3cbd 3a92 aa3d f54b ee3d
00000370: a98b 8cbc c5db 34bd ca7d c93c d95a e2bd
00000380: fbb7 293d e8ab efbc cd66 82bd 03c8 533c
00000390: 275b af3c be62 bd3d 2d6b 3bbc c6a0 163d
000003a0: aa80 70bd e2b6 a1bd b5b0 a6ba f58d c53d
000003b0: 5094 853d f27e 3a3e ddec 8e3d adee 6dbc
000003c0: 444b 3fbc b029 72bd c524 ad3c 322a 7abc
000003d0: 3565 c3bd bd1b 92bc 716d 443e 6272 76bd
000003e0: 39ff ffbc 8752 0f3e a566 39be 6fc6 763d
000003f0: b695 043e 6470 fbbd 419e febd f468 b6bd
-0.22468345 0.11933634 0.007984096 0.017735535 -0.033433218 -0.12010338 -0.07375991 -0.070682675
-0.13549651 -0.10632528 -0.021531222 -0.117724136 -0.06409604 -0.16335133 0.03029009 0.03078379
-0.009407764 -0.023984428 0.077243164 0.058714617 0.03651193 -0.16910627 -0.1306744 0.22416432
-0.09524069 0.04053436 -0.053442024 0.04270097 0.028923584 0.046247385 0.030846305 0.04434053
-0.021935483 0.0837148 -0.017817045 0.04396274 -0.03102018 -0.17330517 0.08910236 -0.18978941
-0.0025848432 -0.049332127 -0.018424364 -0.17470847 -0.014630879 -0.033645716 0.0052435985 -0.0445988
-0.07924631 0.02355892 -0.026933338 0.052457538 0.07174979 -0.20631206 0.053166986 0.049534243
-0.016227473 0.041625187 -0.09631629 -0.097027324 -0.039956678 0.103277296 -0.0110658165 0.08960969
0.041252498 -0.08695822 -0.0014446599 -0.103855275 -0.09394863 -0.09688896 0.10627283 -0.18327926
-0.07707456 -0.04774383 -0.06530853 -0.12312769 -0.08183659 0.009607688 -0.060349606 -0.08432589
-0.14695701 -0.08665941 -0.09840452 -0.031020993 -0.114340924 -0.012658735 -0.041276827 0.0063479897
-0.13198088 -0.122738585 0.049259625 -0.105878584 -0.07128993 -0.095200635 0.028794587 -0.13430963
-0.05396954 0.031224294 0.04130233 -0.08296822 -0.057008464 0.07209008 -0.008489711 -0.12180159
-0.08421497 -0.0131041845 0.019395089 -0.0021738291 -0.105653256 -0.12572445 -0.071063206 0.0014210972
-0.11851574 -0.004631726 -0.0010356929 0.06911765 -0.12526119 -0.042070776 -0.14778571 -0.04855634
-0.051131602 -0.029780155 -0.051952016 -0.10080185 -0.029571166 0.0036882428 0.08912919 -0.08952588
0.101205155 0.08649122 0.042691648 0.044482123 -0.058153365 0.12287405 -0.03398779 -0.17726016
-0.0063835736 0.075476915 0.025064886 0.039152715 0.028246233 -0.03786604 0.08774954 0.0176513
0.09096932 -0.015361048 -0.14638117 0.15984808 -0.0694047 0.07068199 -0.047423307 -0.16964078
0.040895566 -0.112117 0.021590246 -0.0014547773 -0.0057875346 0.027734097 0.03871705 0.10712865
-0.19488399 0.049069963 -0.10213216 0.0067413133 0.06780755 -5.8410486e-05 -0.1460153 -0.046033904
-0.026184885 0.07501625 0.04253482 0.12948038 0.046056338 0.0010319031 -0.015383752 0.032726824
0.0442191 -0.015043354 -0.069285944 0.019322334 0.094451785 0.068872385 -0.032074932 -0.0058608274
0.08809048 -0.027268594 0.048367456 -0.0009975835 -0.061663587 0.13400204 -0.011775877 0.013001791
-0.017429046 -0.05933359 0.004746599 0.034966603 0.015113826 0.07089148 -0.048721265 -0.005441333
0.018430786 -0.03836036 0.06710161 0.053321633 0.110868774 0.101508304 0.104275 0.10768718
0.023949778 0.10737389 -0.042584494 0.06789067 -0.060855784 0.13862416 0.17966108 -0.062267788
0.0666182 -0.046082992 0.08328672 0.116355814 -0.017156439 -0.0441549 0.024596114 -0.11052484
0.041435223 -0.029256776 -0.06367264 0.0129261045 0.02140577 0.09247349 -0.011439127 0.03677442
-0.058716454 -0.0789621 -0.0012717458 0.09646217 0.06522429 0.18212488 0.06978772 -0.014522237
-0.01167566 -0.059121788 0.021135697 -0.015268849 -0.09540788 -0.017835492 0.19182374 -0.060167678
-0.03124963 0.13996325 -0.18105562 0.060247835 0.12947735 -0.12277296 -0.12432528 -0.08906737

sequential/dense/BiasAdd/ReadVariableOp f4 [64]
00000000: 48ec dabb 2874 84bd 25be c4bb d52b 89bc
00000010: e0ca d43c 2900 263b 3315 afbc 7e2e 14ba
00000020: d9a6 9a3c 2f37 a0bb fa9e e33c d3e9 3b3d
00000030: d4df 303d da80 583d fccb 1cbb bd46 b03b
00000040: 4dbc 97bb dbd2 113d e35b ecbc 0d7e 38bd
00000050: 617b e1bc ac6f 2a3b f2c4 983b 3d91 b93c
00000060: 3389 7a3c 9616 f8bc c456 b43c 39a4 b1bc
00000070: a459 293c d1ad 543c dbab f0bb bf49 a53c
00000080: 18ae 5f3c a826 953c f552 4e3c 8ade d63c
00000090: 67a7 f6bb 1406 19bc 6a98 853d fd44 debc
000000a0: ddf6 09bd 9390 1a3d 9ca9 d0bb 66ae 88bc
000000b0: cb25 33bc 4e28 cbbb 2221 c7bb 951a 4d3c
000000c0: 27d1 a33c ac99 d13b 9b01 a93b 21a4 8f3c
000000d0: 5807 eebb a886 4fbc 0ac0 c4bb a86b ef3c
000000e0: fd63 f4bb e4f5 5c3c f1d1 4abc d4f0 6a38
000000f0: c427 15bc 2a6b 473c 31df 0abc 896f 9abc
-0.006680999 -0.064674675 -0.0060041123 -0.016744534 0.025975645 0.0025329685 -0.021372413 -0.000565268
0.018878387 -0.004889391 0.027785767 0.04587729 0.04318221 0.052857257 -0.0023925295 0.0053795264
-0.0046306015 0.035601478 -0.028852409 -0.045042086 -0.027524652 0.0026006503 0.0046621496 0.022652263
0.0152915 -0.030284207 0.02201403 -0.021684753 0.010336313 0.012980894 -0.0073447055 0.020176766
0.013652347 0.01820691 0.012593021 0.026229162 -0.00752728 -0.009339828 0.06523211 -0.027132506
-0.033682693 0.037735533 -0.0063678753 -0.016684722 -0.0109343035 -0.006199873 -0.006076948 0.012518545
0.019997193 0.006396493 0.005157662 0.017534317 -0.007264059 -0.012666382 -0.006004338 0.02922614
-0.0074582086 0.013486359 -0.0123791555 5.6014236e-05 -0.009103719 0.012171546 -0.008476065 -0.018852012

sequential/dense_1/BiasAdd/ReadVariableOp f4 [10]
00000000: 83b4 833c 687d 6b3d 7b66 29bd 618e 17bd
00000010: b0b5 1b3d af3c 46bc 7c68 22bc b036 8bbc
00000020: 131d 703c cab7 c4bb
0.016077286 0.057492644 -0.0413575 -0.037001017 0.038015068 -0.012099429 -0.009912606 -0.01699385
0.014655369 -0.0060033547

sequential/dense/MatMul f4 [64, 1600]
00000000: 02ac 15bd a8fd 3e3d d028 2b3d b06d d2bb
00000010: f49b 933c a680 24bc 5714 3e3d 807d 27bd
00000020: 2ff2 87bd c85f 4dbd 21dd 98bc bc55 86bd
00000030: 8dc4 1cbd 320f 3ebd 7fcc 2b3d e2d6 4dbd
00000040: 25cd ac39 805b 5dbb 9583 87bd 0873 bd3c
00000050: f09b 243d 6007 74bd 8d7a 1d3d a071 c4bc
00000060: ca5c 0b3c 7ff8 dabc d93c 853c 4323 733c
00000070: 54a0 b83c 31a1 4bbd 4211 74bd 6ac3 f43c
00000080: 4902 73bd 0c5f 1bbc a015 df3c 657f 843b
00000090: bad6 67bc fa28 68bd 04e1 11bd e9dc 53bd
000000a0: fd25 e4bc 2341 22bd e07a cf3b 9c9a 813b
000000b0: 69a7 97ba 02b5 383d 2816 e23b 8d0f e9bb
000000c0: db91 3cbd 0914 92bc bcf8 3a3d 297d 863c
000000d0: 9f33 78bd 3322 0e3d 97a6 4fbc a0ed 063d
000000e0: 4fa1 94bc 7dee 823c 18b1 bdbb 4f0b 3fbd
000000f0: 9673 74bd 63c6 0a3d d49c 2d3d d9a3 063d
00000100: 3a8f bebc 4185 053c 76cb 70bd 844e 563b
00000110: fa4b dd3c 6b65 223d 1029 dcbb d739 eebc
00000120: 6e3d 8e3b 6acb 79bd 0b9e 4f3d 5ed8 723c
00000130: 6dea 77bd f4fb 323d fb95 8f3c e47d 0fbd
00000140: 6181 8ebc 5da8 ec3b 4856 7b3b 22a0 5d3d
00000150: 643f 4dbd ff9d 1bbd 3d65 463d 8158 b63c
00000160: fbc8 79bd 3109 4d3c 9f4e 54bc 7fb1 cc3c
00000170: 9f7b 65bd ac3c 6dbd 7a35 433d 6181 d8bc
00000180: 6573 1e3d 6e48 87bc ce7c d8bb 7ec8 12bd
00000190: 85c3 773c c100 db3c 8b72 a93b 424d 1abd
000001a0: bf33 5bbc 5011 253d 4f8c 16bd a6f6 4e3d
000001b0: 305a 55bd d791 a8bc f5da 80bc 2496 84bc
000001c0: 6cad e8bc 33f3 36bd 289d 3e3d ceab c93b
000001d0: bd78 283d 9d6f 44bd 0e23 073d c236 91bc
000001e0: be8f 00bd ce30 023d 0fad 28bc a06d 01bd
000001f0: 2c9c 77bd 5cef 023c 5f77 18bd 42e8 76bd
00000200: f98f cd3b 27dd d73b 2c66 a5bb f596 e43c
00000210: 7de1 77bd fdc2 30bd 71db 34bc 77d2 67bd
00000220: 59dc 22bd b383 e33c cbe2 e9bc 16f4 7fbd
00000230: 1fb5 44bd c33e 1bbd d751 883b 3d80 47bd
00000240: a7e6 4cbd 7ae8 b4bb c072 1d3c 0597 c73c
00000250: 7667 b33b bc77 153d afee 69bc ec57 76bd
00000260: e2cc 943c 51a9 43bd 8356 1d3d 0b6a b5bc
00000270: 0d85 67bd 4a4e 6fbc 971c 1f3d 570a 17bd
00000280: 310b 54bc 04ea 85bc 20ab b33b a52a 673c
00000290: cbb2 6dbd aa54 c23b dfe7 0dbd aee7 22bd
000002a0: f360 e23b b065 6cbd 7ee4 d13b 039b e63c
000002b0: 4b1c 423d ba00 d03c c2b3 893c 43d6 0abd
000002c0: 9f6b f83c e52e 4abd 6b5b 88bd 4da9 613d
000002d0: 9dab b6bc 8cd4 18bd 1b12 493c a02b 98bc
000002e0: 4dd5 f8bc 6704 7a3c d60b 803c 23d4 3f3d
000002f0: 03ec a93b dcf0 be3c 4d3b 1a3d 622a 78bd
00000300: dee2 7abd b5e1 883b 900f 903b 4744 a8bc
00000310: d6e7 a6bb 405a 89bd 85ac 3e3c 8968 ea3a
00000320: 4a7a a2bc 4297 3fbd 8f62 47bc b404 5bbd
00000330: 6223 46bd c76f 1a3d c9a3 c9bc 35ee 11bd
00000340: a827 0fbd 3e12 bd3c ece7 02bd b750 403d
00000350: aaac 94bc c1bf e8bb 5adc 85bd cd01 9a3c
00000360: d3eb adbc a796 84bd 8d0e 293d 77c5 8a3c
00000370: 6102 c3bc db7d 573d 7fea 7fbc a266 2dbc
00000380: af37 e43c d030 44ba c2ea 2fbd 7141 14bd
00000390: 1ed6 1d3d 063c 0bbd 0ca3 7ebb e448 71bd
000003a0: 42e8 dabc eb96 bfbc 8c08 5dbc 7200 50bd
000003b0: c140 b53c 77c8 74bd d9da 113d 41b9 2fbd
000003c0: 30f2 253d 784c 243d 62db 273c 921a 48bc
000003d0: cec4 dfbc afca 163d ea9f 03bd 7656 aebc
000003e0: 44b6 cebc d99e dcb9 9ebb 84bd 1903 433b
000003f0: db8b da3c 5879 83bd 8615 d83c 51bf 50bd
-0.036540993 0.046628624 0.04178697 -0.006421767 0.0180187 -0.010040438 0.046406116 -0.04089117
-0.0663799 -0.050140172 -0.01866013 -0.06559321 -0.038273383 -0.04640121 0.04194307 -0.050253756
0.0003295924 -0.0033776462 -0.06616894 0.02312614 0.040187776 -0.059577346 0.03844695 -0.023979962
0.008506009 -0.02672982 0.016264366 0.01483995 0.022537388 -0.04971427 -0.05958677 0.029878337
-0.05932835 -0.00948311 0.027231991 0.004043507 -0.014150316 -0.056679703 -0.035614982 -0.05172435
-0.027850145 -0.0396129 0.0063317865 0.0039551985 -0.0011570278 0.045094498 0.006899614 -0.0071124495
-0.046037536 -0.01783182 0.045647368 0.016417103 -0.060596105 0.034700584 -0.012673995 0.03294146
-0.018143324 0.01598286 -0.0057889335 -0.046641644 -0.059680544 0.033880603 0.04238589 0.0328711
-0.023261655 0.008149446 -0.058787785 0.0032700608 0.027013768 0.0396475 -0.006718762 -0.029080315
0.004340819 -0.060985006 0.05068783 0.014822094 -0.0605263 0.043697312 0.017527571 -0.035032168
-0.017395677 0.007222219 0.0038350988 0.054107793 -0.050109282 -0.037992474 0.048436392 0.022258999
-0.060982686 0.012514398 -0.012958198 0.02498698 -0.056026097 -0.05791919 0.04765842 -0.02642888
0.038684268 -0.01651403 -0.0066066748 -0.035835735 0.015122299 0.026733758 0.0051711253 -0.037671335
-0.013379036 0.040299714 -0.036754902 0.05052819 -0.052087963 -0.020577354 -0.015729407 -0.016184874
-0.028403006 -0.044665527 0.046536595 0.006154514 0.04113077 -0.047958005 0.032992415 -0.017726306
-0.031387083 0.031784825 -0.010295167 -0.031598687 -0.06045167 0.007991638 -0.037223216 -0.060280092
0.0062732664 0.0065876427 -0.00504758 0.027904013 -0.060517777 -0.043154705 -0.011038647 -0.0565972
-0.03976092 0.02777276 -0.028550526 -0.062488638 -0.048024293 -0.03790165 0.0041601467 -0.048706282
-0.050024655 -0.0055208774 0.009609878 0.024364004 0.00547498 0.03649114 -0.014278098 -0.060142443
0.018164102 -0.047768895 0.038412582 -0.022145292 -0.05652337 -0.014606068 0.038845625 -0.036875095
-0.012942121 -0.016346939 0.005483046 0.014109288 -0.05803184 0.005930503 -0.034644958 -0.03977173
0.00690853 -0.057714164 0.006405412 0.028150087 0.047390264 0.025390971 0.016809348 -0.033895742
0.030324755 -0.04936113 -0.066580616 0.0550931 -0.022298628 -0.037312075 0.012272383 -0.01857549
-0.030375147 0.015259839 0.015630644 0.04683317 0.0051856055 0.02330821 0.03765421 -0.060587294
-0.061251514 0.004177297 0.0043963864 -0.02054037 -0.005093555 -0.06706667 0.011637812 0.0017883937
-0.019833703 -0.04677511 -0.012169494 -0.053471282 -0.048373587 0.037704255 -0.024614232 -0.035627563
-0.03494993 0.023079988 -0.03195946 0.046951976 -0.018148739 -0.007102937 -0.06536169 0.018799687
-0.021230614 -0.06474047 0.041273642 0.016939862 -0.023804845 0.05261026 -0.015619873 -0.010583552
0.027858583 -0.000748408 -0.042948492 -0.036195222 0.038534276 -0.03399279 -0.0038854508 -0.058907405
-0.026722077 -0.023387393 -0.013490807 -0.050781675 0.022125604 -0.05976149 0.0356091 -0.04290128
0.04051417 0.04011199 0.010245176 -0.012213366 -0.027315523 0.036814388 -0.032134928 -0.021281462
-0.025233395 -0.0004208002 -0.06481098 0.0029756485 0.026678016 -0.06419629 0.02637745 -0.050963704

sequential/dense_1/MatMul f4 [10, 64]
00000000: 5e0c 76be 4964 a53d 9895 4bbe 63fb 3ebe
00000010: 471a a3be b490 3bbe 0edb 5e3e 39c5 b43d
00000020: e1a6 35bd 80cc 5ebe db80 9d3e ebd2 0e3e
00000030: 7244 ff3a 1d7e 203e dedd 6d3e ceba ab3e
00000040: 68f0 2ebe 2405 3b3e 95ab 94be 3a47 643e
00000050: 5153 72be e04e bfbe 826a 80be 0ed8 7f3e
00000060: 0096 213d ed5d 66be 0a43 623e aebb 9dbe
00000070: 5c8d 143e e8be 90bd 96f5 cdbd 035f ebbc
00000080: 4426 ca3c 2af1 9dbe 599a c73d 954d da3d
00000090: 854e 81be e836 533d 8d47 953e b9e7 18be
000000a0: 69dd f13d 3fdb 403d 2630 54be 84d6 343d
000000b0: 5384 a8bd 8e2e 0f3e b778 a8be 1c91 a63e
000000c0: 6ea7 283e 923d b0bc 8fb2 803e 643c 893c
000000d0: ed33 45bd 5965 eabd 217d 15be 7520 b0be
000000e0: 8df4 aabe 1637 ed3d ccd8 67be 0154 46be
000000f0: 0d32 79be 32e4 2fbe 570a fbbd 5a4d 87bb
00000100: b488 623c 6656 273e 89de 8fbe 1614 413e
00000110: fd17 843e beac 5fbe 6b3a 13be 30fb 30be
00000120: 8b96 cc3e feb3 a8be c1d5 9abe f3f9 3a3e
00000130: 1f8d 8e3e dc13 a93e 3ce9 07be afbd 653e
00000140: 5f30 993c 4821 6c3e e159 a1bd 36ba 113e
00000150: df69 33be 032e 7c3e a7e8 cdbd 82eb b83d
00000160: 280f 05be 0283 53bd 9e42 b83e 4055 adbe
00000170: 5d5c da3d f50e 953e e4e2 91be f99a efbd
00000180: 269b 053e 39fb 713e 0338 0abe b3c9 7b3d
00000190: 201c 4d3e a006 9abe a16d 503e 0c92 5fbd
000001a0: a94d e63d 4937 4a3e 8148 a6be d21e ccbd
000001b0: e97e 3c3e 8a28 83be d099 953d c905 c3be
000001c0: 5c98 9cbe 44ff d73d 9f00 65bd d9c8 eabd
000001d0: 7568 55be 06fe 6bbd 0dee 233d e171 9b3e
000001e0: 1925 8ebe f9a3 88be 8866 3abe e719 59be
000001f0: e595 abbd e4f5 d5bd c9d2 353e f881 4cbd
00000200: 7010 6a3d dda3 42be 714c 44be 8cb0 623e
00000210: 90f9 f3bd 909c 923e d7a9 e9bd bfc1 2ebe
00000220: f9d3 1abd 25ed 8bbe 9dcd bf3d c431 8abe
00000230: 88ad 2a3e d67b 863e b333 073d b8ae b9bc
00000240: dfa6 333e 0d05 dfbe fd4d 5b3e ea5c b2bd
00000250: 1322 64be f6ba 8f3e 5567 9abe ab49 4d3e
00000260: 6e84 783d ac2e 44bd 5d1b 073e e236 8e3d
00000270: 8780 c43b f3df 32bd b37e 203e 1d32 4bbe
00000280: 7690 9bbe eb75 b6be 94a4 a53d ab70 4dbe
00000290: 8a6d ec3d 41d0 173e 6062 a0be 88c1 013e
000002a0: 011c 613d d32c adbc bcc7 c63c c930 3bbe
000002b0: f94c 0f3e 034d ddbd aab2 573e f819 91be
000002c0: 0708 853e 9e6a 8dbd e01c 093e a130 aebe
000002d0: c072 313e 754a 0b3e 38ee 563e efd5 7a3e
000002e0: 2806 71be c3f4 21be c7f2 7dbe 7819 623e
000002f0: 9077 503e f657 15bd 56fa e83d 3e36 7cbe
00000300: ef2b 863e 5ef0 6fbe d59a 91bd 07b0 88be
00000310: 5ddf 95be 0325 8dbd e220 efbd 0e7d 973e
00000320: 99cc 993d 2fac 223c 5dfc 4bbe 550a 90be
00000330: 22cc b1be 4765 c3be c4dc 893d a260 873d
00000340: 35ed 5a3e 639d 30be 769d 1fbe 45cf 3fbe
00000350: 6fd4 453e a3fa 953e 5276 e03d f62b 67be
00000360: 2879 30bd c5ce 14be bf8f 92be f1d8 533e
00000370: 84ad 24be b579 123e c0a8 f73c d332 a5be
00000380: 944e 413d 7bc3 4e3e b029 2b3e 30a7 adbd
00000390: 7ae1 3b3e 5499 12bd 1558 c8be bd84 2f3e
000003a0: 5ccd 513c 6a22 73be 2c59 d73c fedf 3d3d
000003b0: e7ce 5ebe e4c0 fd3c 1cb5 cf3d 1bb9 bd3d
000003c0: 99dc a1be 59c2 a13e 4869 c43c f142 0cbe
000003d0: 0032 9a3d 1f6b 38be 9dbd 833e 810d 973e
000003e0: c96d a83e 6716 8dbe 5bda 873e 02dc 38be
000003f0: 171d 623e 33d4 a7be dd52 c63d 537b 2d3e
-0.24028155 0.080757685 -0.19881284 -0.18650584 -0.31855986 -0.18316919 0.2176325 0.0882668
-0.0443486 -0.21757698 0.3076237 0.13947646 0.0019475354 0.15673108 0.23229167 0.33540958
-0.17083895 0.1826368 -0.29037157 0.22292796 -0.23664595 -0.37364864 -0.2508126 0.24984762
0.03944969 -0.22496767 0.22095886 -0.3080725 0.1450705 -0.070676625 -0.100566074 -0.028731829
0.02467645 -0.30848056 0.09746236 0.10659329 -0.25255218 0.051566035 0.2915615 -0.14932145
0.11809809 0.04708409 -0.20721492 0.04414989 -0.08228364 0.13982603 -0.32904598 0.32532585
0.1647012 -0.021513734 0.2513623 0.01675243 -0.048145223 -0.11445112 -0.14598514 -0.34399763
-0.33389702 0.115827724 -0.22641295 -0.19367982 -0.24335499 -0.17176893 -0.122578315 -0.004129094
0.013826538 0.16341552 -0.28099468 0.18855318 0.25799552 -0.2184324 -0.14377753 -0.1728332
0.39958605 -0.32949823 -0.30241206 0.1825941 0.27842042 0.33022964 -0.13272566 0.2243564
0.018699823 0.23059571 -0.07878471 0.1423119 -0.17520855 0.24626927 -0.100541405 0.090292946
-0.12994063 -0.05163861 0.35988325 -0.33854103 0.10662148 0.29112974 -0.28493416 -0.116994806
0.13047466 0.2363099 -0.1349793 0.061471652 0.2003026 -0.3008318 0.2035432 -0.05458264
0.11245281 0.19747652 -0.3247719 -0.09966816 0.18407787 -0.25616866 0.07304728 -0.3809035
-0.3058499 0.10546735 -0.055908795 -0.1146409 -0.20840628 -0.057615303 0.040021945 0.3036032
-0.27762678 -0.266876 -0.18203175 -0.21201287 -0.083781995 -0.104472905 0.1775619 -0.049928635
0.057144582 -0.19007821 -0.19169785 0.2213766 -0.11912835 0.28635073 -0.114093475 -0.17066096
-0.03779981 -0.27329364 0.093653895 -0.26991093 0.1666776 0.26266354 0.03300829 -0.02266632
0.17544125 -0.4355854 0.21416469 -0.08709128 -0.22278623 0.28072327 -0.3015696 0.20047633
0.06067317 -0.047896072 0.13194032 0.06944062 0.005996767 -0.043670606 0.15673332 -0.19843335
-0.30383652 -0.3563684 0.080880314 -0.2006251 0.115443304 0.14825536 -0.31325054 0.12671483
0.054958347 -0.021139538 0.024265163 -0.18280329 0.13994206 -0.108057044 0.21064249 -0.28340125
0.25982687 -0.06905101 0.13389921 -0.34021476 0.1732893 0.13602622 0.2098931 0.24495672
-0.23537505 -0.15816025 -0.24799643 0.22080028 0.2035811 -0.03646084 0.11375873 -0.24630067
0.26205394 -0.23431537 -0.0710961 -0.26696798 -0.29271975 -0.06891825 -0.11676194 0.29587597
0.07509727 0.009928747 -0.19920488 -0.28132883 -0.34726053 -0.38163206 0.06731561 0.06610228
0.2137955 -0.17247538 -0.1558741 -0.18731411 0.19319318 0.29292783 0.10960068 -0.22575364
-0.043084294 -0.14532001 -0.28625295 0.20688225 -0.16081816 0.1430424 0.030231833 -0.32265338
0.04719408 0.20191757 0.16715121 -0.08479154 0.18347731 -0.035790756 -0.391297 0.1714048
0.012805309 -0.23743597 0.026287638 0.046356194 -0.21758614 0.030975766 0.10141966 0.09263822
-0.31613615 0.31593588 0.023975983 -0.13697411 0.07529068 -0.18009613 0.257306 0.2950249
0.3289626 -0.27556154 0.2653378 -0.18052676 0.2208141 -0.32779083 0.09683774 0.16941576
