working_p2/quantized_model.tflite (tflite, 61896 bytes, 5 tensors)

model/dense_16/MatMul i1 [1, 32] scale=0.0023311817 zero_point=0
0.04429245 -0.16085154 -0.23544934 -0.0023311817 -0.09557845 -0.13520853 0.27507943 -0.11655908
-0.048954815 -0.0046623633 0.07926018 -0.121221446 0.17250745 -0.10490318 -0.2960601 0.18649453
-0.2284558 -0.07459781 -0.086253725 -0.065273084 0.1771698 0.032636542 0.18649453 0.046623632
0.032636542 -0.11889026 0.0023311817 0.12355263 0.25876117 0.27274826 0.18649453 0.1258838
00000000: 13bb 9bff d7c6 76ce ebfe 22cc 4ad3 8150
00000010: 9ee0 dbe4 4c0e 5014 0ecd 0135 6f75 5036

model/batch_normalization_8/batchnorm/mul_1;model/batch_normalization_8/batchnorm/add_1;model/dense_15/MatMul;model/dense_15/Relu;model/dense_15/BiasAdd i1 [32, 64] scale=0.0024689701 zero_point=0
0.017282791 -0.14566924 0.04444146 -0.14320026 -0.17035894 -0.054317344 -0.019751761 0.07160013
0.12838645 0.17035894 -0.11357263 0.15554512 -0.16048306 -0.14566924 -0.0987588 0.123448506
-0.059255283 0.02222073 -0.0074069104 -0.01234485 0.06419323 -0.041972492 -0.18517277 -0.061724253
0.11851057 0.21726938 -0.009875881 -0.19257967 0.01234485 -0.15307614 -0.13085541 0.19504865
0.0049379403 0.13332438 -0.12838645 -0.059255283 0.051848374 -0.07160013 0.12097954 0.11851057
-0.1901107 -0.28640053 0.02222073 0.123448506 0.13085541 0.111103654 0.08147602 -0.15801409
0.11604159 -0.15060718 0.19257967 -0.123448506 0.1975176 0.17529687 -0.2641798 0.14813821
-0.13826233 -0.034565583 -0.054317344 0.074069105 -0.096289836 -0.027158672 -0.04444146 0.24689701
0.25430393 0.14813821 0.054317344 -0.123448506 -0.21233143 0.111103654 -0.019751761 -0.13826233
0.07653807 0.059255283 -0.11851057 -0.106165715 0.08147602 -0.0987588 -0.029627642 -0.12097954
-0.0246897 -0.12838645 -0.24936599 -0.06666219 -0.017282791 0.01234485 0.10369675 0.13332438
0.11604159 0.10369675 -0.25183496 -0.06666219 0.16048306 -0.1407313 0.111103654 -0.061724253
0.1975176 -0.165421 -0.17529687 -0.11357263 0.079007044 -0.10863469 -0.12097954 0.051848374
-0.0987588 -0.08147602 -0.041972492 0.22714525 -0.123448506 0.014813821 0.17282791 -0.01234485
0.06666219 -0.17529687 -0.13332438 -0.18517277 0.25183496 0.14320026 0.18023482 0.0987588
-0.21973835 0.12838645 0.06419323 0.12097954 0.034565583 0.20245555 -0.041972492 -0.18517277
-0.15060718 -0.111103654 0.04691043 0.0074069104 -0.0049379403 0.12097954 -0.13826233 -0.18764172
0.02222073 0.14320026 -0.19504865 0.032096613 0.054317344 -0.165421 0.027158672 -0.15554512
0.16295204 -0.0074069104 -0.0246897 0.061724253 -0.13085541 -0.1827038 0.15060718 0.20492452
0.07653807 0.111103654 0.017282791 -0.17035894 -0.22220731 0.21726938 0.041972492 0.014813821
-0.1827038 0.017282791 0.09382086 -0.123448506 -0.0074069104 -0.034565583 -0.20492452 -0.069131166
0.0493794 0.0024689701 0.12097954 -0.11851057 0.15554512 0.15307614 -0.07653807 -0.111103654
-0.054317344 -0.2073935 -0.029627642 0.096289836 0.11604159 0.027158672 0.079007044 0.106165715
-0.13085541 -0.08641396 0.08888292 -0.019751761 -0.12591748 0.027158672 0.04691043 0.039503522
0.16788997 -0.17282791 0.01234485 -0.17776585 -0.1901107 0.0493794 -0.13332438 -0.2073935
-0.123448506 -0.18023482 -0.054317344 -0.051848374 -0.02222073 -0.19257967 0.0024689701 -0.1407313
0.15060718 0.032096613 -0.06666219 -0.15060718 -0.12838645 0.11604159 -0.09382086 0.074069105
-0.017282791 -0.22220731 -0.034565583 0.15307614 0.20245555 -0.04691043 -0.0246897 -0.21973835
0.0246897 -0.18517277 0.041972492 -0.08641396 -0.01234485 -0.123448506 0.21973835 0.0493794
0.079007044 0.27652466 -0.037034553 -0.0913519 0.12838645 0.14813821 0.14566924 -0.032096613
0.069131166 0.0913519 -0.1975176 -0.19257967 0.0024689701 -0.1901107 -0.0913519 -0.0024689701
0.15554512 0.0074069104 -0.0987588 -0.014813821 -0.165421 -0.22961423 -0.01234485 -0.22467628
00000000: 07c5 12c6 bbea f81d 3445 d23f bfc5 d832
00000010: e809 fdfb 1aef b5e7 3058 fcb2 05c2 cb4f
00000020: 0236 cce8 15e3 3130 b38c 0932 352d 21c0
00000030: 2fc3 4ece 5047 953c c8f2 ea1e d9f5 ee64
00000040: 673c 16ce aa2d f8c8 1f18 d0d5 21d8 f4cf
00000050: f6cc 9be5 f905 2a36 2f2a 9ae5 41c7 2de7
00000060: 50bd b9d2 20d4 cf15 d8df ef5c ce06 46fb
00000070: 1bb9 cab5 663a 4928 a734 1a31 0e52 efb5
00000080: c3d3 1303 fe31 c8b4 093a b10d 16bd 0bc1
00000090: 42fd f619 cbb6 3d53 1f2d 07bb a658 1106
000000a0: b607 26ce fdf2 ade4 1401 31d0 3f3e e1d3
000000b0: eaac f427 2f0b 202b cbdd 24f8 cd0b 1310
000000c0: 44ba 05b8 b314 caac ceb7 eaeb f7b2 01c7
000000d0: 3d0d e5c3 cc2f da1e f9a6 f23e 52ed f6a7
000000e0: 0ab5 11dd fbce 5914 2070 f1db 343c 3bf3
000000f0: 1c25 b0b2 01b3 dbff 3f03 d8fa bda3 fba5

model/batch_normalization_7/batchnorm/mul_1;model/batch_normalization_7/batchnorm/add_1;model/dense_14/MatMul;model/dense_14/Relu;model/dense_14/BiasAdd i1 [64, 128] scale=0.0032688195 zero_point=0
-0.022881737 0.0032688195 0.2190109 -0.20920445 -0.08172049 -0.016344098 -0.016344098 -0.09152695
0.07845167 0.055569932 -0.18959153 0.09806459 0.10787105 -0.09152695 0.16017216 -0.10787105
-0.05883875 0.17324744 0.2026668 -0.07191403 0.2516991 0.09152695 0.052301113 0.22881737
0.019612918 -0.22881737 -0.08498931 -0.08172049 0.2190109 -0.120946325 0.14055924 0.016344098
0.026150556 -0.055569932 0.21247327 -0.19612917 0.07845167 -0.1830539 -0.055569932 0.08172049
0.1503657 -0.12748396 0.13729042 0.026150556 -0.1340216 0.16344097 -0.15363452 -0.1830539
-0.049032293 0.029419376 -0.14055924 0.16017216 -0.07518285 -0.14382806 0.13729042 0.022881737
-0.1013334 0.17651625 0.06864521 0.235355 0.22554855 0.09806459 -0.06864521 0.013075278
0.013075278 -0.16997862 -0.14382806 -0.029419376 0.2026668 0.1830539 -0.06210757 -0.20593563
0.09806459 -0.009806459 0.22881737 0.042494655 -0.1503657 -0.052301113 -0.22227973 -0.1667098
0.2680432 -0.120946325 -0.08498931 -0.12748396 0.0 0.049032293 0.19286035 -0.1503657
0.1013334 0.016344098 -0.13075279 -0.22554855 0.14382806 0.088258125 -0.19286035 -0.16344097
0.1667098 -0.16017216 -0.0032688195 0.088258125 -0.1176775 -0.2026668 -0.09152695 -0.022881737
-0.045763474 -0.120946325 0.235355 -0.2157421 -0.2516991 0.13729042 -0.19612917 -0.16997862
0.120946325 0.029419376 0.17978507 -0.14382806 -0.029419376 0.07845167 -0.08172049 0.1013334
-0.06210757 0.1176775 -0.09806459 0.10787105 -0.120946325 0.0032688195 -0.052301113 0.039225835
-0.14382806 0.08172049 0.1503657 0.06864521 0.026150556 -0.19286035 0.07191403 0.029419376
-0.09152695 -0.09479576 -0.09479576 0.032688197 0.029419376 0.22881737 -0.10787105 -0.16017216
0.2680432 0.2157421 0.022881737 0.006537639 -0.049032293 -0.055569932 -0.019612918 0.2680432
0.2516991 0.06864521 -0.19286035 -0.235355 0.06864521 0.09806459 -0.07845167 0.009806459
0.06537639 -0.08172049 -0.13729042 -0.22227973 -0.199398 -0.032688197 0.29419374 0.042494655
-0.2190109 -0.14709687 -0.15690334 0.013075278 -0.049032293 -0.18959153 0.026150556 0.1340216
0.16017216 0.2026668 -0.2157421 -0.120946325 0.09806459 0.16344097 0.2026668 0.026150556
-0.16017216 0.17651625 0.17651625 -0.0032688195 -0.11440869 -0.16997862 -0.013075278 -0.19286035
-0.05883875 -0.1340216 0.08172049 0.07845167 -0.08498931 -0.16344097 0.24189265 -0.06864521
0.07191403 -0.1503657 -0.19286035 -0.029419376 0.11440869 -0.16344097 0.22227973 0.18959153
0.27458084 0.23862383 -0.22554855 -0.05883875 0.0 -0.19286035 0.09806459 -0.0032688195
0.026150556 0.042494655 0.22554855 -0.12421514 0.18632272 0.06537639 0.032688197 -0.1013334
0.026150556 0.20920445 -0.006537639 -0.1503657 -0.15690334 -0.16997862 -0.199398 -0.14055924
-0.026150556 -0.23208618 0.104602225 -0.013075278 0.006537639 -0.13729042 -0.17324744 0.15690334
-0.042494655 -0.013075278 0.052301113 0.09479576 0.045763474 0.07845167 -0.19286035 0.07518285
-0.1667098 0.14709687 -0.10787105 0.13075279 0.055569932 0.06210757 0.10787105 0.111139864
00000000: f901 43c0 e7fb fbe4 1811 c61e 21e4 31df
00000010: ee35 3eea 4d1c 1046 06ba e6e7 43db 2b05
00000020: 08ef 41c4 18c8 ef19 2ed9 2a08 d732 d1c8
00000030: f109 d531 e9d4 2a07 e136 1548 451e eb04
00000040: 04cc d4f7 3e38 edc1 1efd 460d d2f0 bccd
00000050: 52db e6d9 000f 3bd2 1f05 d8bb 2c1b c5ce
00000060: 33cf ff1b dcc2 e4f9 f2db 48be b32a c4cc
00000070: 2509 37d4 f718 e71f ed24 e221 db01 f00c
00000080: d419 2e15 08c5 1609 e4e3 e30a 0946 dfcf
00000090: 5242 0702 f1ef fa52 4d15 c5b8 151e e803
000000a0: 14e7 d6bc c3f6 5a0d bdd3 d004 f1c6 0829
000000b0: 313e bedb 1e32 3e08 cf36 36ff ddcc fcc5
000000c0: eed7 1918 e6ce 4aeb 16d2 c5f7 23ce 443a
000000d0: 5449 bbee 00c5 1eff 080d 45da 3914 0ae1
000000e0: 0840 fed2 d0cc c3d5 f8b9 20fc 02d6 cb30
000000f0: f3fc 101d 0e18 c517 cd2d df28 1113 2122

model/batch_normalization_6/batchnorm/mul_1;model/batch_normalization_6/batchnorm/add_1;model/dense_13/MatMul;model/dense_13/Relu;model/dense_13/BiasAdd i1 [128, 256] scale=0.059233725 zero_point=0
-0.29616863 -0.41463608 -2.9616861 -3.5540235 -2.9616861 1.9547129 -0.35540235 0.17770118
0.59233725 -0.5331035 0.5331035 0.7108047 0.059233725 0.41463608 -0.11846745 -1.066207
-0.7700384 -2.6655176 3.257855 0.2369349 -0.7108047 -1.5993106 0.2369349 2.0139465
2.132414 0.5331035 1.4808431 0.7700384 -0.059233725 -0.29616863 -2.5470502 1.1254408
-0.29616863 0.11846745 0.7700384 3.6132572 0.59233725 1.8362455 0.59233725 0.8885059
0.17770118 0.17770118 -0.4738698 3.7317247 1.7770118 0.82927215 0.35540235 0.7108047
-1.3623757 -0.17770118 -0.29616863 2.606284 0.41463608 -1.5400769 0.35540235 0.29616863
-0.35540235 -0.29616863 0.17770118 -0.2369349 -1.1846745 0.2369349 0.651571 0.0
2.7247515 -0.5331035 -3.672491 0.41463608 -0.35540235 0.059233725 -0.29616863 -0.35540235
-1.066207 -0.41463608 0.4738698 -0.651571 -0.41463608 0.059233725 1.5993106 -0.29616863
0.2369349 1.066207 -0.17770118 -1.7770118 0.29616863 0.2369349 0.7108047 -0.7700384
-0.29616863 2.6655176 -0.11846745 0.4738698 -0.7700384 -4.2055945 0.29616863 0.59233725
-1.8362455 2.4285827 -0.7700384 2.369349 -3.4947898 -1.3623757 -0.35540235 0.41463608
-2.9024525 -0.41463608 0.5331035 -0.59233725 1.8362455 -1.1846745 2.1916478 -0.11846745
0.59233725 -1.9547129 -1.4216094 -0.2369349 -1.066207 -2.0731804 -0.29616863 1.303142
0.41463608 0.0 -0.2369349 -0.2369349 -3.02092 -0.29616863 -2.6655176 -0.17770118
0.41463608 0.8885059 0.59233725 -0.29616863 1.9547129 -0.59233725 2.132414 -2.132414
-0.17770118 -0.17770118 0.29616863 2.0139465 -0.59233725 -0.82927215 0.17770118 -0.17770118
-0.59233725 2.132414 1.8954792 -1.5993106 -2.6655176 -0.059233725 -1.1254408 -0.17770118
2.7839851 -0.4738698 -0.41463608 -0.651571 1.717778 -1.4216094 -0.7108047 -0.5331035
-0.059233725 2.9024525 0.8885059 2.3101153 0.11846745 0.17770118 -0.4738698 0.17770118
-0.35540235 -0.29616863 1.0069733 -0.059233725 0.5331035 3.6132572 0.2369349 -0.11846745
0.7700384 -1.1846745 -2.7839851 0.29616863 -0.17770118 0.2369349 0.7700384 1.3623757
-1.7770118 -0.059233725 -0.29616863 3.6132572 -0.7700384 0.8885059 -0.7700384 0.35540235
2.6655176 3.02092 -0.059233725 -2.6655176 0.82927215 2.7839851 -1.7770118 1.1254408
-3.7317247 0.059233725 -0.9477396 -0.17770118 0.2369349 2.369349 -0.11846745 0.0
-0.11846745 3.4947898 1.9547129 -0.11846745 -1.2439082 -0.7700384 0.9477396 -0.5331035
0.11846745 -1.3623757 0.5331035 0.651571 0.59233725 -0.29616863 -0.059233725 -0.7108047
3.0801537 -0.82927215 -1.0069733 -0.11846745 0.5331035 -0.7700384 -1.0069733 0.11846745
-2.3101153 1.5400769 -0.059233725 -0.5331035 0.11846745 2.606284 -0.4738698 -0.651571
-0.2369349 -0.11846745 -0.41463608 -0.7700384 -0.17770118 -0.11846745 -0.8885059 -0.4738698
0.29616863 -0.41463608 2.5470502 -0.7108047 0.4738698 3.7317247 -0.29616863 -0.059233725
00000000: fbf9 cec4 ce21 fa03 0af7 090c 0107 feee
00000010: f3d3 3704 f4e5 0422 2409 190d fffb d513
00000020: fb02 0d3d 0a1f 0a0f 0303 f83f 1e0e 060c
00000030: e9fd fb2c 07e6 0605 fafb 03fc ec04 0b00
00000040: 2ef7 c207 fa01 fbfa eef9 08f5 f901 1bfb
00000050: 0412 fde2 0504 0cf3 fb2d fe08 f3b9 050a
00000060: e129 f328 c5e9 fa07 cff9 09f6 1fec 25fe
00000070: 0adf e8fc eedd fb16 0700 fcfc cdfb d3fd
00000080: 070f 0afb 21f6 24dc fdfd 0522 f6f2 03fd
00000090: f624 20e5 d3ff edfd 2ff8 f9f5 1de8 f4f7
000000a0: ff31 0f27 0203 f803 fafb 11ff 093d 04fe
000000b0: 0dec d105 fd04 0d17 e2ff fb3d f30f f306
000000c0: 2d33 ffd3 0e2f e213 c101 f0fd 0428 fe00
000000d0: fe3b 21fe ebf3 10f7 02e9 090b 0afb fff4
000000e0: 34f2 effe 09f3 ef02 d91a fff7 022c f8f5
000000f0: fcfe f9f3 fdfe f1f8 05f9 2bf4 083f fbff

model/dense_12/MatMul i1 [256, 50] scale=0.0017612766 zero_point=0
-0.10919915 0.049315747 0.028180426 -0.10743787 0.14970851 0.03170298 -0.06340596 -0.059883405
-0.11800554 0.054599576 -0.13209575 -0.04755447 -0.13737957 -0.008806383 0.1585149 0.068689786
-0.086302556 0.14618596 -0.0035225532 -0.049315747 0.1514698 0.09158638 0.049315747 -0.13385703
0.05812213 -0.07749617 0.17965022 -0.06692851 -0.10215405 -0.06164468 0.014090213 0.14970851
-0.008806383 0.084541276 0.014090213 0.051077023 0.0 0.110960424 0.029941702 -0.022896595
0.04050936 0.10215405 0.0070451065 0.12328936 0.04755447 -0.06692851 0.059883405 -0.054599576
-0.06516723 0.13033447 0.11624426 0.0757349 -0.12505063 -0.029941702 -0.12152809 0.014090213
-0.0052838298 0.10039277 0.012328937 -0.084541276 0.11800554 -0.098631494 -0.070451066 0.19726299
0.02641915 -0.033464257 -0.1285732 -0.068689786 0.06692851 0.10919915 0.038748085 0.14970851
0.028180426 0.06516723 0.012328937 0.08982511 0.07397362 -0.038748085 0.0757349 -0.029941702
0.01585149 0.04050936 -0.02641915 0.008806383 0.15323107 0.14794724 -0.04755447 0.0052838298
0.07925745 0.01585149 0.12152809 0.014090213 -0.08101872 -0.12152809 0.06692851 0.0
-0.10039277 0.1426634 0.049315747 -0.13737957 -0.06340596 -0.11976681 -0.07925745 0.056360852
-0.0105676595 -0.09334766 0.09510894 -0.024657873 -0.13914086 0.0528383 -0.10391532 -0.044031914
-0.04050936 0.019374043 0.07221234 -0.112721704 -0.09510894 0.04755447 0.035225533 0.038748085
-0.07221234 0.11976681 -0.10919915 -0.021135319 -0.114482984 -0.014090213 -0.024657873 0.10743787
0.070451066 -0.09158638 -0.06340596 -0.098631494 -0.08982511 -0.07397362 -0.11800554 -0.03170298
-0.07397362 -0.12328936 -0.03170298 0.1356183 -0.033464257 -0.07925745 -0.114482984 0.029941702
-0.12681192 -0.112721704 -0.059883405 0.1285732 -0.10391532 0.04050936 -0.035225533 0.1056766
0.054599576 -0.1514698 0.098631494 -0.04050936 -0.06340596 0.09158638 -0.14442468 -0.084541276
0.09158638 -0.042270638 0.0017612766 0.09510894 0.017612766 -0.028180426 0.044031914 0.07749617
0.04050936 0.03698681 0.08982511 -0.08982511 -0.13914086 -0.10919915 0.0528383 0.024657873
-0.03170298 -0.051077023 0.110960424 -0.110960424 0.051077023 0.038748085 0.1356183 -0.112721704
-0.09334766 -0.07221234 -0.07221234 -0.14090213 0.07749617 -0.0070451065 0.12152809 0.029941702
-0.0105676595 -0.10743787 -0.13914086 -0.017612766 -0.09510894 -0.10391532 0.06164468 -0.110960424
0.0017612766 -0.054599576 0.054599576 -0.06692851 -0.08278 -0.12328936 0.1285732 0.06516723
-0.096870214 0.03698681 0.01585149 -0.019374043 -0.04050936 0.03698681 -0.06516723 -0.1426634
0.01585149 -0.017612766 -0.14618596 -0.049315747 0.09510894 0.0105676595 -0.029941702 -0.05812213
0.029941702 -0.13033447 0.01585149 -0.059883405 0.0105676595 -0.07749617 0.03698681 0.10039277
-0.049315747 -0.0017612766 -0.11976681 -0.035225533 -0.06340596 -0.098631494 -0.021135319 0.028180426
-0.13737957 0.06516723 0.08806383 0.04050936 -0.10039277 0.019374043 -0.054599576 -0.024657873
0.07397362 0.029941702 0.022896595 0.07397362 -0.15499234 -0.114482984 -0.096870214 0.022896595
00000000: c21c 10c3 5512 dcde bd1f b5e5 b2fb 5a27
00000010: cf53 fee4 5634 1cb4 21d4 66da c6dd 0855
00000020: fb30 081d 003f 11f3 173a 0446 1bda 22e1
00000030: db4a 422b b9ef bb08 fd39 07d0 43c8 d870
00000040: 0fed b7d9 263e 1655 1025 0733 2aea 2bef
00000050: 0917 f105 5754 e503 2d09 4508 d2bb 2600
00000060: c751 1cb2 dcbc d320 facb 36f2 b11e c5e7
00000070: e90b 29c0 ca1b 1416 d744 c2f4 bff8 f23d
00000080: 28cc dcc8 cdd6 bdee d6ba ee4d edd3 bf11
00000090: b8c0 de49 c517 ec3c 1faa 38e9 dc34 aed0
000000a0: 34e8 0136 0af0 192c 1715 33cd b1c2 1e0e
000000b0: eee3 3fc1 1d16 4dc0 cbd7 d7b0 2cfc 4511
000000c0: fac3 b1f6 cac5 23c1 01e1 1fda d1ba 4925
000000d0: c915 09f5 e915 dbaf 09f6 ade4 3606 efdf
000000e0: 11b6 09de 06d4 1539 e4ff bcec dcc8 f410
000000f0: b225 3217 c70b e1f2 2a11 0d2a a8bf c90d
