Post-Training_Quantization/random_model_quantized.tflite (tflite, 1892 bytes, 3 tensors)

sequential/dense/BiasAdd/ReadVariableOp f4 [5]
00000000: 001d a9bd 72be 23bd 0a68 93bd 4c05 dfbc
00000010: cf89 a9bd
-0.082574844 -0.039976545 -0.07197578 -0.027224205 -0.08278238

sequential/dense/MatMul f4 [5, 10]
00000000: 71c4 dabe 3433 963e 5b65 fbbe 6770 743e
00000010: 8f8d e5be a423 9bbe 9d80 0cbf 60dc 99bc
00000020: cddc 11bf 5921 fc3e 4010 14bf fe6f b23e
00000030: d94c fe3e b957 02bf 787b 0abf 165e d7be
00000040: 8e9e debe b399 603b 8913 0b3d 4e65 5dbe
00000050: 8f02 76bd a211 91bd f2a8 043e 162e 3a3e
00000060: 79ea 6cbe 6141 c7be 2a4b 12be bc8e 07bf
00000070: 34de de3e c208 08bf 3716 0b3f ca52 f7bd
00000080: f995 4a3e 9e2e 843e 8526 1a3f 4d27 9d3e
00000090: 4140 893d bb01 533e bf78 ea3e 60ee 11be
000000a0: 39fc 29bf 6fa1 19bf 71dd 2c3e 09f2 323e
000000b0: 5df9 cd3d d030 c1be cfc4 c6bd 187a f63e
000000c0: 9014 c7be 4248 b7bc
-0.42727998 0.2933594 -0.49100766 0.23871003 -0.44834563 -0.3030063 -0.5488375 -0.01878184
-0.5697754 0.49244192 -0.57837296 0.34851068 0.49668005 -0.50915104 -0.5409465 -0.4206397
-0.43480343 0.00342713 0.033954177 -0.21620676 -0.060061034 -0.07083441 0.12955073 0.18181643
-0.23136319 -0.38917068 -0.14286485 -0.5295217 0.43528903 -0.53138363 0.5433077 -0.12076338
0.19783773 0.25816816 0.60215026 0.30694047 0.067017086 0.20606129 0.45795247 -0.14251089
-0.66400486 -0.60011953 0.16881348 0.17475142 0.10057328 -0.37732553 -0.09705507 0.48140025
-0.38882875 -0.022373322

sequential/dense_1/MatMul f4 [1, 5]
00000000: 74aa 53be 8abc 61be f633 cb3e 5e55 11b9
00000010: a9e6 a63e
-0.20670491 -0.22044578 0.3968808 -0.0001386008 0.32597855
